examples/x_model.pth (torch, 607779 bytes, 13 tensors)

weight f4 [128, 128]
00000000: 1b43 a13e 554a 30be 4732 0dbf 87cd 27be
00000010: 2550 07c0 a25b 39bf 569e 0dbf 688e 6fbf
00000020: f174 a4bf d15c 60bf 0e20 f53f 2a17 c5bf
00000030: 1f5e 113e 18a3 bebf acab 813f cf5b 7f3e
00000040: ee72 15bf cfff 2c3f 37ab 2fbf 8e87 45bf
00000050: 91bc 7ebf 6c32 5bbe d2aa a43e 7e84 f73e
00000060: 123d 2f3f 2109 5f3f f636 9b3e dbc3 983f
00000070: 30cf 46be 22e0 15c0 9108 0540 40f0 423f
00000080: 12eb a33f 2087 fdbe c6ea 5f3f 8d27 423f
00000090: 0093 f6bd 0242 3b3f f5a7 3d3f b7c0 383f
000000a0: 110d 49bf 6e1d 013f 7446 453d 1f1d fd3e
000000b0: a6de 69bf f540 8ebe fa43 a9bf 85e7 1a3e
000000c0: 99ec 2e3f 0bad 25bf 8b5c 8c3f d188 bdbf
000000d0: cd3d 3f3f 804d ce3e 49b6 98bf f1e0 843e
000000e0: 00de 0fc0 c51f 28bf 2ebf b8bd 1ea8 a7bf
000000f0: 9b4c 66bf 8865 81bf 2cb2 413f 95e3 813f
00000100: 0403 14bf c841 b03f ee4c f53f 46c7 84bf
00000110: 7ac6 4cbf aaef ffbe 8079 863f f3bf 45bf
00000120: 20ea 433f cc14 7c3c 6308 b4bf 427d 3b3e
00000130: 78a2 143e 15d0 07c0 f4fb 823f a99f 2e3f
00000140: 8bd9 a93f 725c b53e 43ec 8a3e 8d78 9e3f
00000150: f494 903f 3f51 423e fab3 1abf 13ea 623f
00000160: 14a4 a3bf 855c d0bf dd6b 4fbe 5994 22bf
00000170: af84 fabe 4f37 323f 0c90 0bbf db4a e73c
00000180: 1092 cebf 4461 1c3f 9d11 b83f ff7f 463f
00000190: 4539 b73e 42b6 71bf 4b7b 723f 9ab0 9e3f
000001a0: 1b43 f53e af58 bebe aee9 483f e30a d93f
000001b0: 73bd e03f 43ee ba3f d04a 98be 19b9 f7be
000001c0: f5c5 b8be fedd 40bf 11a2 b4bf d3c9 c9bd
000001d0: 8193 713e 71ca 4a3e a702 c23e 9679 02be
000001e0: 3383 6e3f 305d aebf 2684 13bf 5ec4 29bf
000001f0: 8a0d 31be 9456 d23f 07db a3bf ab5b 603e
00000200: 52cc dd3f 33fa 46bf 084f e8bf 1e03 eb3e
00000210: e30d d33e 5085 6e3e d747 803f 698a 933e
00000220: 0eef a6be d322 40bf 91a8 58bf 0ffa d8be
00000230: 23b4 c1be 2e5a eebe 3554 203f bf75 a63f
00000240: ff36 26be 9c40 b83f 1fcf a3bf b9a4 a3bf
00000250: 30b1 a3bf 88b4 9c3e 1ba2 963e 119f 4d3f
00000260: 44ec 14bf 2880 8f3f b598 633d 174c ce3e
00000270: b0d3 aa3d 9a52 323f a4a1 d5be f16b bdbe
00000280: 70f6 033f fd19 19be ee74 f9bd dc58 383f
00000290: 4302 7bbe 4e85 81bf 0a96 a13f cabd 2dbf
000002a0: b870 d2be 0cd0 29bf 4817 5abf fd8b 883e
000002b0: bb84 b23f 5db0 afbd 3751 813f cb9d d73e
000002c0: 3abc 94bf 5097 c43e 225c 373e 73e4 cd3f
000002d0: 33dc 043f a6ee cabd 4b6b 073f fea4 a3bf
000002e0: 027e 07c0 8f51 87bf e2ff 2f3f 3680 b0bf
000002f0: 7cc0 9abf 11ca 793f d496 933e db9b 67c0
00000300: d376 aebf 1ce8 683e d88f 9d3f 584d 7b3d
00000310: 15f3 163f 0126 3bbf f49c 9dbe 0cc2 653f
00000320: c723 59bf 456c d0bd 53ca b63e 0a77 353f
00000330: a97e e63f fcd2 4bbf 86ab 5fbe 1c2b 8b3f
00000340: 2371 21bf 4972 5bbe 9e0a 09bf 1108 95bf
00000350: 2e00 91bd 6397 cdbf 269c 46bf 8969 a7be
00000360: b8de e5bf 89d1 d83e 9495 2fbf f37e 373f
00000370: 4cfd 01bf b007 5fbe 5319 5c3e fd87 b93f
00000380: 3acc 75be 52a2 e23e 243d 20bf 5051 843f
00000390: 05c1 643c 0995 a03d 058c 6ebe f0d6 6fbf
000003a0: 88b7 893f 4c54 68bf 0977 9cbf 71f8 c3be
000003b0: 7309 733c f982 0e40 f5cd b03e 381f 06bc
000003c0: c0d7 06bf bba4 a3bf 4784 413f 4a91 97be
000003d0: 2ff9 d03f c589 813e 82c7 27bf dc49 583d
000003e0: 1c2d febe e902 f23f 8a65 29bf 7a35 65bf
000003f0: 9c6d 12c0 f1c5 8f3f a000 55bf 09bb 8d3e
0.3149651 -0.17215855 -0.5515484 -0.16386996 -2.1142666 -0.72405446 -0.55319726 -0.9357667
-1.2848188 -0.87641627 1.9150407 -1.5397694 0.1419606 -1.4893522 1.0130515 0.24937366
-0.58378494 0.6757783 -0.6862063 -0.77159965 -0.9950648 -0.21405953 0.32161576 0.4834327
0.6845256 0.87123305 0.3031537 1.193477 -0.19414973 -2.341805 2.0786479 0.7614784
1.2806113 -0.49517155 0.8746761 0.758416 -0.12039757 0.73147595 0.7408441 0.7216906
-0.7853556 0.5043553 0.048162892 0.4943628 -0.9135536 -0.27783933 -1.322387 0.1512738
0.6832977 -0.6471717 1.0965742 -1.4807378 0.74703676 0.40293503 -1.1930629 0.25952867
-2.2479248 -0.65673476 -0.0902084 -1.309818 -0.8996064 -1.010911 0.75662494 1.0147578
-0.578171 1.3770075 1.9164102 -1.0373313 -0.7999035 -0.49987537 1.0505829 -0.77246016
0.7652912 0.015385818 -1.406506 0.18309501 0.14515102 -2.1220753 1.023314 0.6821237
1.3269514 0.35422093 0.27133378 1.2380539 1.1295457 0.18976305 -0.6043087 0.8863842
-1.2784448 -1.6278235 -0.2025599 -0.6350761 -0.48929355 0.69615644 -0.54516673 0.028233936
-1.6138325 0.61085916 1.4380375 0.77539057 0.3578588 -0.9441873 0.9471938 1.2397645
0.4790276 -0.37177035 0.78481567 1.6956447 1.7557815 1.4603962 -0.29744577 -0.48383406
-0.3608853 -0.75338733 -1.4111959 -0.09852948 0.23591425 0.19803788 0.3789265 -0.12741694
0.93168944 -1.3622189 -0.5762352 -0.6631526 -0.17290321 1.6432672 -1.2801217 0.21909969
1.7327979 -0.77725524 -1.8149118 0.45900816 0.41221532 0.23293042 1.0021924 0.28816536
-0.3260426 -0.7505314 -0.8463221 -0.4237828 -0.37832746 -0.46553177 0.6262849 1.3004683
-0.16231917 1.4394717 -1.2797583 -1.2784644 -1.2788448 0.30606484 0.29420552 0.8032084
-0.5817301 1.1210985 0.055565555 0.40292427 0.083411574 0.6965729 -0.41724885 -0.36996415
0.5154791 -0.1495132 -0.12180506 0.7201059 -0.24512582 -1.0118806 1.2623913 -0.6786772
-0.41101623 -0.6633308 -0.85191774 0.26669303 1.3946756 -0.085785605 1.010291 0.42112574
-1.1619942 0.38396692 0.1790624 1.6085342 0.518985 -0.099088 0.5289809 -1.2784727
-2.117066 -1.0571765 0.6874982 -1.3789127 -1.2089992 0.97573954 0.2882601 -3.6188877
-1.3630012 0.22744793 1.2309523 0.061353058 0.58964664 -0.73104864 -0.30783808 0.8974922
-0.84820217 -0.10176901 0.35701236 0.70884764 1.8007404 -0.7961881 -0.21842775 1.0872531
-0.6306326 -0.21430315 -0.53531826 -1.1643087 -0.070801124 -1.6061825 -0.77582014 -0.32697704
-1.7958593 0.42347363 -0.68587613 0.71678084 -0.50777125 -0.21780276 0.21494035 1.4494625
-0.24003688 0.44264466 -0.62593293 1.0337315 0.013962035 0.07840926 -0.232956 -0.93687344
1.0759134 -0.90753627 -1.2223827 -0.38275483 0.014833796 2.226744 0.34532133 -0.008186154
-0.5267296 -1.2784647 0.75592464 -0.29603034 1.6326045 0.25300422 -0.655388 0.052804813
-0.4964379 1.8907138 -0.6617056 -0.89534724 -2.28794 1.1232282 -0.8320408 0.2768176

weight f4 [128, 9]
00000000: 8f7a 78bc cc63 73bc ddb8 9bba 500e 89ba
00000010: 4cdd f13b 797c 2f3c 5e50 95bc 9d6d dc3c
00000020: 7185 2e3e a7c8 dd3c 70fd 7ebc 0f06 dabc
00000030: 5eee fc3b e7d3 29bb e13e b6ba 7eb5 05bc
00000040: 6c00 713c 9807 e0be 2a80 103d 9b47 ccbb
00000050: 1b2e 2fbc 2b34 2ebb 8c86 a7bc fc5d 703c
00000060: 61f2 77bc 1030 3abb bd1b 5cbe 8500 c5bb
00000070: 366e 113c 772e be3c 1119 17bc c4bb a9bb
00000080: 9935 cbbb d3d6 a03c 329b ed3b b2ef 8d3d
00000090: 08bd 7cbc 99cc b2bc 928a 3bbb f927 81bc
000000a0: 6589 503c 1e62 043d a169 b7bc a493 793c
000000b0: d1f4 7c3e 6567 533c 1656 eb3b 0ae0 f73b
000000c0: f81e 86ba ea0a 21bc 58d5 84bc 415c 8cbc
000000d0: 66b7 93bc 0ecd 893b 3721 f13c 8671 b9bb
000000e0: e7f0 cc3b da42 cebb 9e26 a03b 7382 e53a
000000f0: f0f0 3cbb a0d0 063c 28b1 113e 239f a5bc
00000100: 03fe 1a3b e86b a5bb 2b5e 88bb f96a e8bc
00000110: acb3 a5bc 441e e43b 44a5 6fbc aaa4 16be
00000120: 46e3 f1bb 5759 afbb 128e 01bb 6975 4fbc
00000130: 5fe7 853c 4527 e03a caf0 cfbc 675f 2fbc
00000140: 6722 b9be 20cc e43c 69d1 8a3b a62d 013c
00000150: 4c28 8ebb 90aa 4f3b 5549 c1bc af14 69bb
00000160: b764 033c cdd6 96bd 2e14 e7bc a2ca 483a
00000170: e5ef 893c e71e 8cbc 6491 973c 0351 07bc
00000180: f8ad c3b9 9ffe 283b 1283 4e3c 5aa6 6a3c
00000190: 558e af3b 6e0f 81ba b8ca c83b 01dc 5fba
000001a0: 2440 65bb ec3f aabb cda2 d73c 4894 803e
000001b0: 45db 213c 1d02 6b3a 910c 353b 3c59 e2bb
000001c0: c5a8 f9bb 70cd 21bc 15ba b7bb a401 963c
000001d0: 4aeb 523c de8c 0f3c 2be7 26bc c224 893b
000001e0: 8fb2 193b 3c3d 96bb 26e2 68ba 5c99 58bb
000001f0: a273 d63c 5c85 9f3e f934 843c 0a07 193b
00000200: 2369 a03c 7ea5 3cbc 30fe 0abc 4f8d aabc
00000210: b9a3 cabc 480c bc3b fdb8 c63d 1826 e13b
00000220: ef08 953c 67ce c7bb f980 ee3b d077 21bc
00000230: e1c3 dbbb 52c7 e63c 3add 91bc 630c 323e
00000240: ab1a 51bc 5536 85bc 877a 2eba d930 3cbc
00000250: 8f2a 6f3c ad9b f2ba c2b0 c5bc e483 c03b
00000260: a693 a3be 37e3 b93c 6093 dfb8 8dd2 133c
00000270: d107 8bba d154 8fbc 3016 4e3b 82fc 4f3c
00000280: 2cd4 ad3c e030 c63d 8160 953d 5784 a23b
00000290: d4a2 c73b 055e cf3b 7973 12bc 0922 e7bc
000002a0: 6ace c2bc 0971 633c 4459 9ebd 5c66 533c
000002b0: ebaf b23b a7d5 1abc 6b48 b6bb cbb8 52bc
000002c0: 58b5 34bc e8a4 68bc bb0e 31bc 9120 ab3d
000002d0: 5477 933c e0f3 0dbb a436 a93b 30ad 5abc
000002e0: d800 febb 57c0 07bc 76d3 8ebc 8688 ef3b
000002f0: fb84 493e 4d32 3dbc 42d1 2e3c 4268 473c
00000300: c0a4 23bc 184b 57ba 906a 7abb 3474 9f3b
00000310: 3f0f 9f3a 3030 9e3e 0aa3 523b 921c 343b
00000320: bb20 5d3b 66bb 13bb f7a7 aa3a d3fb d8bb
00000330: af2f 4dbc 74cc 173c dc50 d7bd e7bb 8bbd
00000340: 7d43 bb3c f083 023d 14bf c7b9 355d 183c
00000350: 5f4c 24bc 255d a63c 531c 67bc ce15 873d
00000360: cd33 1e3d 25b4 e53b b6f2 d13b 06c0 26bc
00000370: 4f75 f2bb 734b 90bc bc37 80bc 3858 953c
00000380: 9f5c 913e b85b 043d ccb2 6f3c 2042 83bb
00000390: cc23 653c 2f4c aabc 6969 4dbc 78ac 9cbb
000003a0: 13ec efba 4283 a73e cb78 8f3c fe90 05bc
000003b0: 599c 0eba abbb 2abc 0ee3 f53b 2e8c 95bb
000003c0: 7df3 463c c577 ad3c 5b8a 0d3e 58e8 c2bc
000003d0: 40c7 10bb d0e8 d9bb a52b 7ebb 0ac6 3abc
000003e0: 5868 a8bb 4078 89bc e2d0 ffbc 140b 9b3b
000003f0: ed75 dc3c 6968 8ebb e51d 2d3c fa7e b9bb
-0.015165939 -0.014855336 -0.0011880655 -0.0010456536 0.007381117 0.010710829 -0.018226799 0.026907736
0.17043091 0.027073218 -0.015563354 -0.026614217 0.0077188453 -0.0025913657 -0.0013904237 -0.008160947
0.014709573 -0.43755794 0.035278477 -0.006234122 -0.010692145 -0.0026581388 -0.0204499 0.014670845
-0.015133471 -0.0028409995 -0.21494956 -0.006012025 0.008876374 0.023215516 -0.009222285 -0.005179854
-0.0062014577 0.019633686 0.0072511667 0.06930484 -0.015425928 -0.021826075 -0.002861653 -0.01576613
0.01272807 0.032320134 -0.022389235 0.015232954 0.24702765 0.012903069 0.007181893 0.0075645493
-0.0010232618 -0.009829262 -0.016215011 -0.017133834 -0.018031787 0.0042053526 0.029434783 -0.005659285
0.0062543037 -0.0062945904 0.004887416 0.001751019 -0.0028830133 0.008228451 0.14227736 -0.020217484
0.0023649938 -0.005048264 -0.0041616163 -0.028371321 -0.020227276 0.0069616158 -0.014626805 -0.14711252
-0.0073818294 -0.0053512263 -0.0019768518 -0.01266227 0.016345678 0.0017101547 -0.025383372 -0.010703898
-0.3615906 0.027929366 0.0042363894 0.007884419 -0.0043383 0.0031687357 -0.023594538 -0.0035565307
0.008019618 -0.07365189 -0.028207865 0.0007659589 0.016838023 -0.01710458 0.018501945 -0.008259061
-0.00037322915 0.0025786532 0.012604492 0.014321888 0.0053575435 -0.0009846517 0.0061276816 -0.0008539558
-0.0034980858 -0.0051956084 0.026322747 0.2511313 0.009878938 0.00089648535 0.0027625898 -0.00690761
-0.007618996 -0.00987564 -0.0056068995 0.01831133 0.01287348 0.008761613 -0.010186951 0.00418529
0.0023452376 -0.0045849364 -0.00088837964 -0.0033050394 0.026178185 0.31156433 0.01613854 0.0023350143
0.019581383 -0.011514066 -0.008483455 -0.020819334 -0.024736272 0.0057387687 0.097032525 0.006870996
0.018192736 -0.006097603 0.0072785583 -0.009855226 -0.0067067 0.028171215 -0.017805684 0.17387538
-0.012762706 -0.01626126 -0.0006655831 -0.011486256 0.014597549 -0.001850953 -0.024132136 0.0058750976
-0.31948584 0.022691352 -0.00010660919 0.009022367 -0.0010607188 -0.017496498 0.003144633 0.01269448
0.021219335 0.09677291 0.07293797 0.004959624 0.0060924087 0.0063283467 -0.008938664 -0.028214471
-0.023780067 0.01388193 -0.0773187 0.012902822 0.0054531 -0.009450353 -0.005562832 -0.012861441
-0.011029564 -0.014199473 -0.010806735 0.08355821 0.018001236 -0.0021660253 0.0051639844 -0.013346955
-0.0077515654 -0.0082856035 -0.017434817 0.007309976 0.19679634 -0.011547637 0.010670008 0.012170853
-0.00998801 -0.0008212789 -0.003821049 0.0048661474 0.0012135281 0.3089614 0.0032140636 0.002748285
0.0033741433 -0.0022542118 0.0013020028 -0.0066218167 -0.012523576 0.009265054 -0.105134696 -0.06822949
0.02285933 0.031864107 -0.00038098602 0.009299566 -0.010027974 0.020308087 -0.014105874 0.06595956
0.03862362 0.0070100003 0.006407107 -0.010177618 -0.007399238 -0.017614102 -0.015651576 0.018230543
0.28390977 0.032314032 0.014630031 -0.0040056854 0.013985585 -0.02078828 -0.012537339 -0.004781302
-0.0018304609 0.3271733 0.017513653 -0.008152245 -0.0005440168 -0.01042072 0.0075038737 -0.00456383
0.012143013 0.021175275 0.1382231 -0.02379243 -0.0022091419 -0.006650068 -0.0038783338 -0.011399755
-0.005139392 -0.016780972 -0.031227533 0.004731545 0.0269117 -0.0043459428 0.010566209 -0.0056608887

bias f4 [128]
00000000: f703 17bd d18e b03d e2fe 5e3d ffe2 25bc
00000010: 24cd 36bd ad54 34bc 81a8 06bd 42bc 293d
00000020: ba1a a83d 2a19 383a 10d0 cb3b a99b 89bd
00000030: 0903 f2bb 8d80 acbd 494a 25bd 7968 1dbd
00000040: fd53 a43d 199d 8fbc f924 7cbc 1c92 a0bc
00000050: 145d 62bd bc14 87bd 9ea0 633c 34a1 94bc
00000060: 7bab a5bd f91f b5bd 74dc 10bd ced6 423b
00000070: 0d44 5b3d 4d97 83ba d42e 503c 28fd 393d
00000080: 1a05 893c f849 3b3d 4f2c 6b3d 0bf4 6dbd
00000090: bea9 22bd 3616 9dbd e83b d13d 6516 50bd
000000a0: 0557 aabd 0da8 2abb 44ff 0bbd 9a78 5c3c
000000b0: 4341 dfbc c117 d83c e1ce 923d 10b8 65bb
000000c0: 249c 9f3c 1b9c e93a e48c efbc 3b87 573c
000000d0: 4213 313c 827f 5a3d 7189 e8bc 92c1 633b
000000e0: be9a 9f3d 07a7 4bbd a16b 473b 6a95 d4bd
000000f0: 7797 4f3d f498 7e3d 754c 663c a1ce a03d
00000100: b8bd b7bc 00cf b6bd 4cae 8c3d e6a0 1a3d
00000110: 7f16 0c3d 473b acbc 0a0c aabc dbfd 383d
00000120: 24d2 cebd aab3 aabc a66f e7bb a649 34bd
00000130: 9da1 cc3d c2b0 143d 898d 89bd 7a8a 74bc
00000140: fe6a a7bd 4a1c 963d 5d74 323d f148 8bbd
00000150: 678a e43d d684 473d f745 97bc 5d02 17bd
00000160: 52df 49bd bdca 833c 4c84 aa3d 0c13 c8b8
00000170: 3ca5 83bd 64b1 913d 6b07 953c c60f e13c
00000180: ab3d 00bd 30cc 093d 528e 76bd 1819 99bc
00000190: 5ad6 96bb 6f43 5d3d c49a d13d 8305 5e3d
000001a0: 6143 a6bd dc21 14bc 04b7 a03d 4c29 eebc
000001b0: 5641 183c 0232 913c f157 413d a46e dd3c
000001c0: 0b64 683d 556c 623b 3438 143d 24a7 82bc
000001d0: 715b 673d db61 acbd 86af cd3d db68 a93d
000001e0: 7a69 243d 244f 3a3d a642 973b 5710 173d
000001f0: a9f3 c53d 450b e13c 9819 5bbd c7c6 d9bc
-0.036869016 0.0862099 0.054442294 -0.010124921 -0.04462923 -0.011006516 -0.03287554 0.041439302
0.08208223 0.00070227927 0.0062198713 -0.06719143 -0.0073856157 -0.084229566 -0.040354047 -0.03842971
0.08023832 -0.017530965 -0.015389674 -0.01960092 -0.055264547 -0.06595752 0.013893275 -0.018143274
-0.08089348 -0.08843989 -0.03536649 0.0029730084 0.053531695 -0.0010039598 0.012706477 0.045407444
0.016726065 0.04572484 0.057415303 -0.058094066 -0.03971266 -0.07670252 0.10216504 -0.050802607
-0.08317379 -0.0026040107 -0.034178987 0.013456488 -0.027252799 0.026378514 0.07168365 -0.0035052337
0.019483633 0.0017823012 -0.029241987 0.0131548 0.010807814 0.053344257 -0.02838585 0.0034752828
0.077931866 -0.049719837 0.0030429142 -0.10380061 0.050681558 0.062157586 0.014056315 0.07851911
-0.022429332 -0.08926201 0.06869182 0.0377511 0.03420114 -0.02102436 -0.020757694 0.04516397
-0.10098675 -0.020837624 -0.00706287 -0.04401555 0.09991763 0.036301382 -0.06716449 -0.0149255935
-0.08174704 0.073296145 0.043568004 -0.06801022 0.11159211 0.048710667 -0.018465979 -0.03686749
-0.04928524 0.016087884 0.08326015 -9.540291e-05 -0.06428 0.07113913 0.018192014 0.027473342
-0.03130881 0.033641994 -0.06019432 -0.018688723 -0.0046031894 0.054019388 0.10234597 0.054204475
-0.0811832 -0.009041276 0.078474075 -0.029072426 0.009292921 0.01772404 0.047203008 0.027030297
0.056736033 0.0034549434 0.036186412 -0.01594884 0.05648369 -0.08417102 0.10043244 0.08271953
0.040139653 0.04548563 0.0046160994 0.036880817 0.09665615 0.027471194 -0.053491205 -0.026584042

weight f4 [128, 128]
00000000: 3cf8 33bc fd2a 85bb f4df 4d3c 7481 d23b
00000010: 4f49 96bc ec21 e9bb f7e9 0dbc dd41 ff3b
00000020: 9ba0 7bbc 6294 1e3d c7c3 8a3a 024a 1cbb
00000030: f0a6 03bc 546e 72bc 3e5b 99bc aa2a 073d
00000040: 4c5f dbbc ab22 313c 81d8 18bd 006b 743b
00000050: 49de 5fbb 9dcd 23bb 60a5 c1bc c1da 9bba
00000060: e32b 093d 2571 703c 2dad 713c 608e 84bd
00000070: efea a4bc b0eb 11ba 0098 1d3b 6435 953d
00000080: 66f0 d7bb 488a d63c 5be1 093d db36 f7b9
00000090: fd54 09bd 101f 90bc 69fa 5c3c fcfc 083d
000000a0: 079c 89bc 28fd c83b bbe3 083d 3369 103c
000000b0: 5c96 283b fec6 8e3c ae48 89bb da12 8f3c
000000c0: b3d0 fb3b 74a1 4fbb 7ec1 11bd 204d 91bb
000000d0: 71af 163d 2fe6 afbc b3ef ddbc 16e0 88bc
000000e0: fd2c fc3b 40c1 48bc c044 ca3c 9d6a 2dbc
000000f0: b26e c43b 7a1c f33b 1b2e 933c 6fcf b73c
00000100: b133 4a3d c11a 43bb 0f7c a5bc 5753 e7bc
00000110: 1972 73bc 43d3 23bc 39b2 a1bc 1b82 473c
00000120: afed d9bc 9efe 37bb def1 c03c 8b86 693c
00000130: d04b 07bc b404 e83c 4f5a 1b3c cae5 fb3c
00000140: b7ac 1f3a a571 2a3b 5db4 443d f884 b53b
00000150: ec9e e5bc 64ff 81bc 21f0 873c 2341 6c3c
00000160: 74d9 2d3c c5ae d8bc a8b9 2e3d 1b81 043d
00000170: b1ea ddbb c711 a83c a3b8 45bd 67dc 1f3d
00000180: 0b43 0fbb f9aa cebc 486a 09bc 4264 193c
00000190: bd5a 1f3b 7ad4 393c b4fd 1f3c 7158 b43c
000001a0: 648a 5fbd cb89 213d dd96 c0bc 6d2f 0dbc
000001b0: 227b 4f3d d3d2 973c 1be9 6a3b 9187 3e3c
000001c0: ad7b ed3c bf92 2bbd 7fa3 663c 9a39 4abd
000001d0: c982 02bc 67d6 6b3b 89ca 823c 261a 603c
000001e0: a2d4 60bc 37d2 0d3c 7345 ccba be95 323b
000001f0: b228 db3c beee 153d 4b1e dabc 21de d9bc
00000200: 45c1 e5bc 6620 86bd b41a 99bc 1ccd f43b
00000210: a27b 913b 304c dbbc 8892 af3b 4851 09b7
00000220: 991f 46ba 56b5 373c 308f eb3c 2e5a 1dbc
00000230: 4671 983d 76f1 34bc 0464 56bb 4661 61bb
00000240: c532 37bc fd5b a93c 030b 83bc 931f ce3c
00000250: 2e32 0ebb 50c7 6e3c d108 62bd 0623 183c
00000260: 10dd 253d e780 103c 2f6e 123c 7dac 6cbd
00000270: c934 0abc 355a 823b 73d4 973b feb6 1e3d
00000280: 9471 9fbb 492c 24bb ee4c c83c 6f18 d8bb
00000290: 2056 8cbc ae22 27bc 9208 70bc 78f4 9b3b
000002a0: ddb5 a73c 5690 faba 3108 563c 8f4a e73c
000002b0: acbc 2ebc 55a2 22bb 8576 663c 894c 093c
000002c0: c5b2 5b3b 9761 af3c 1e8f 5fbd aadb 66bb
000002d0: a90f 2d3d 9ad3 b4bc f5a0 d9bc 9052 fb3c
000002e0: f5f8 babc 6dcc a63c 93a4 08bb c102 61bc
000002f0: 9a5c a33c 05aa 6b3c c4df e13c 91fb 963c
00000300: 9e0e 973d db4d 41bc b27e 503d 4b39 00bd
00000310: 1b37 29bc de0b 4e3c e3a6 323b a9c8 20bc
00000320: 3bcf c5bc e564 1cbb 9ead 84ba 553a e9bb
00000330: b5e8 1bbc 2066 593c 76f1 4abd fded a2bc
00000340: 4cbb 09bd bc8a 17bd 9459 863c 266b 333d
00000350: 129c 67bc c237 f0bb 626a 703d 4e28 bdbc
00000360: d28c e13b 1706 9e3c b629 0ebc 0a35 41bd
00000370: 2d84 50bd 0a29 0d3b d3cd 793c 5118 d8bc
00000380: 59a2 acbc e16a 00bc 5311 123c 6f09 36bc
00000390: 6394 47bd 725a 90bc 3e5d 94bb 8d78 0c3c
000003a0: ed50 d83c fa1d 893b 0412 c0bc 41f7 ce3a
000003b0: 5820 fabb 9d4a d0bb 77cd 83bc 977c d4bb
000003c0: 65d5 663c 6e53 fe3b 6207 2abc 3d00 c3bb
000003d0: 27a0 b83d 955c dbbb 77f4 923b 154d 52bd
000003e0: 8099 853c a844 b63c b21b 0dbc ab0d 313d
000003f0: 8b2b 063a dd8e b8bc 0cab 273d 6736 b9bc
-0.010984477 -0.0040639625 0.012565602 0.0064241234 -0.018345503 -0.0071146395 -0.008661739 0.007789834
-0.015358116 0.038715728 0.0010586911 -0.0023847823 -0.0080354065 -0.014796812 -0.018720265 0.032999672
-0.02677884 0.010811488 -0.03731585 0.0037295222 -0.0034159592 -0.0024994381 -0.023638427 -0.0011890755
0.03348912 0.014675413 0.014750761 -0.064724684 -0.020131556 -0.0005566431 0.0024046898 0.07285574
-0.006589937 0.026188985 0.03366218 -0.00047152382 -0.033528317 -0.017592937 0.013487437 0.03344439
-0.016798032 0.006133694 0.033420306 0.008814144 0.0025724387 0.017428871 -0.0041895723 0.017465044
0.007684791 -0.0031681927 -0.03558492 -0.004434243 0.036788408 -0.021472065 -0.027091837 -0.016708415
0.0076957927 -0.012253106 0.024690986 -0.010584501 0.005994641 0.007419166 0.01796632 0.02243778
0.049365703 -0.0029770585 -0.020200757 -0.028237982 -0.014858746 -0.009999099 -0.019738303 0.012177016
-0.026602594 -0.0028075348 0.023552831 0.014253269 -0.008257821 0.028322555 0.00948198 0.03074922
0.0006091105 0.0026007679 0.04802357 0.0055395328 -0.028029881 -0.01586885 0.016593995 0.014419827
0.010610927 -0.026450524 0.042657524 0.032349687 -0.006772362 0.02051629 -0.048271786 0.03902855
-0.002186003 -0.02522801 -0.008387156 0.009362282 0.002431556 0.011342162 0.009765077 0.022014828
-0.05457534 0.03943805 -0.023509437 -0.008617264 0.050654538 0.018533146 0.0035844508 0.011629001
0.028989637 -0.041887995 0.014077066 -0.04937134 -0.007965752 0.0035985948 0.015965717 0.013678109
-0.013722571 0.008656076 -0.0015584662 0.0027249898 0.026752803 0.036604635 -0.026625773 -0.026595177
-0.02804626 -0.06549148 -0.01868949 0.00747074 0.004439787 -0.026769727 0.005358044 -8.184761e-06
-0.0007557809 0.011212667 0.0287548 -0.00960402 0.0744348 -0.011043897 -0.0032713423 -0.0034390255
-0.011181538 0.020673746 -0.015996462 0.02516154 -0.002169739 0.014573887 -0.05518419 0.009285694
0.040494025 0.008819795 0.008937403 -0.057781685 -0.0084354365 0.0039780387 0.00463348 0.038748734
-0.0048658345 -0.002505081 0.024450745 -0.0065947096 -0.017130911 -0.010201139 -0.014650481 0.0047593676
0.020472461 -0.0019116502 0.013063476 0.028233794 -0.0106651 -0.0024815996 0.014066343 0.008380064
0.0033523303 0.02140884 -0.054579847 -0.0035226145 0.042251263 -0.022073556 -0.026566008 0.030679017
-0.02282379 0.02036115 -0.0020850047 -0.013733567 0.019941617 0.0143837975 0.02757252 0.018430503
0.07375835 -0.011798347 0.050902076 -0.03130464 -0.01032808 0.012576072 0.0027260117 -0.009813466
-0.024146667 -0.0023863849 -0.0010122543 -0.0071175494 -0.009515931 0.013268977 -0.04954668 -0.019888872
-0.033625886 -0.03699754 0.016400136 0.043803357 -0.014136331 -0.0073308656 0.058695205 -0.023090508
0.006883242 0.019290013 -0.008676937 -0.047169723 -0.050907303 0.0021539354 0.015246826 -0.026378782
-0.021073507 -0.007837982 0.008915263 -0.011110648 -0.048725497 -0.017621253 -0.004527717 0.008573663
0.026405776 0.0041844817 -0.02344609 0.001579024 -0.00763325 -0.006356551 -0.016089184 -0.006484579
0.014088963 0.0077614104 -0.010377737 -0.005950956 0.09014922 -0.0066943862 0.004484709 -0.051343042
0.016308546 0.022249535 -0.00861256 0.043225925 0.0005118183 -0.02252906 0.040934607 -0.022608949

bias f4 [128]
00000000: f557 5c39 439a c23b f653 163b 2630 c83b
00000010: 5b79 89bb 49cd a73a d083 99bb eb76 39bb
00000020: d9ac f63a 42d0 eb3b 69ba d13b cea2 953a
00000030: fb15 98ba 5d75 7bba 70a7 573a 1376 10bb
00000040: c556 56bb a6a1 3f3b a595 4d3a be73 a83b
00000050: db5e 0bba ee96 4f3b bdb3 1cbb 1622 79bb
00000060: da3e 563b 6c55 ca38 ddac 48bb f237 8cbb
00000070: 4c4c 33bb f031 953b e577 acba cbb0 a43a
00000080: 45a2 db39 2aad 393b 6f9b 8d3b d54c c43a
00000090: a43f c8b8 ac41 a7ba 0eac 98ba 3e07 8e3b
000000a0: 73ec 1f39 24b7 bbbb f696 a43b 5036 ce3a
000000b0: 2de8 783b 903a ccbb 324f be3a 9e24 bebb
000000c0: feaf aaba fb8c 7fbb 861d 2c3b 79c3 50ba
000000d0: 8541 80bb b00e e7ba 7f73 82bb 92da d139
000000e0: 68bb 9dba ac34 863b 6203 c039 20ad fe39
000000f0: 50fb 6fba 1e0d e1b9 5626 a03b cd3b 1639
00000100: ace8 3ebb d129 dc3a c002 34bb 120a 793b
00000110: f739 beb9 645d 153b 102b bcbb a6dc a8ba
00000120: ed08 883a d1fb 93ba 076a a73a b09c c539
00000130: 3d86 503a 2947 5bbb f0bf a13a ea4c e2ba
00000140: 5858 deb9 0b50 693b d853 a23a 9f21 933b
00000150: 000d f9ba c517 f63a 02e5 8b3a 677d 10bb
00000160: 48f5 d739 1a6c fc3b 38ea 5239 5d23 f1b9
00000170: fa92 8e3b d8b4 113b 9517 b33a 6c21 a3ba
00000180: 96ba 623b 2ae9 713b 84c5 7abb fa1f f43a
00000190: 4f89 bc3a 961b 44bb 2a92 9a39 be98 6bbb
000001a0: e0ce 843a d4e4 3d3b 31d4 d33b 5c61 b3ba
000001b0: eaea a8bb 08f6 313a d1a0 96ba 7208 d23b
000001c0: 9796 dcba 6427 e638 2aa5 a8ba e5ad afbb
000001d0: 4ac9 143b e815 863b 86d5 8bb9 f07f 583a
000001e0: f562 b4ba 817c d93b da89 f2ba 878c 753a
000001f0: ffc9 9b3b f8f5 d837 2abd 3c3b c959 1bbb
0.00021013602 0.0059387996 0.0022938228 0.0061092554 -0.004195375 0.0012802269 -0.0046849027 -0.002829964
0.0018819823 0.007196457 0.0064003957 0.0011416317 -0.001160323 -0.00095923786 0.0008226549 -0.0022043034
-0.0032705527 0.0029240637 0.0007842428 0.0051407507 -0.0005316564 0.0031675654 -0.0023910843 -0.0038014702
0.003269127 9.648022e-05 -0.0030620613 -0.00427913 -0.002735871 0.004553072 -0.001315829 0.0012564895
0.00041891835 0.0028331974 0.0043215076 0.0014976511 -9.548597e-05 -0.0012760661 -0.0011647956 0.0043343594
0.00015251506 -0.005728619 0.0050228788 0.0015732739 0.0037980184 -0.006232567 0.0014519452 -0.005802705
-0.001302242 -0.0038993943 0.0026262715 -0.0007963698 -0.0039140605 -0.0017628279 -0.0039810534 0.00040026434
-0.0012034001 0.0040956344 0.00036623614 0.00048575643 -0.0009154575 -0.00042925117 0.0048873825 0.00014327392
-0.0029130382 0.001679713 -0.002746746 0.0038000387 -0.0003628281 0.002279126 -0.005742438 -0.0012883141
0.0010378637 -0.0011290257 0.0012772687 0.0003769151 0.00079545734 -0.0033459163 0.0012340527 -0.0017265354
-0.0004240896 0.0035600688 0.0012384607 0.004490092 -0.0019001067 0.0018775394 0.0010673108 -0.0022047402
0.00041190744 0.0077033164 0.00020114414 -0.0004599345 0.004351017 0.0022233035 0.0013663644 -0.0012445874
0.0034596077 0.0036912658 -0.00382647 0.0018625252 0.0014384183 -0.002992367 0.0002948207 -0.0035949196
0.0010132454 0.0028975504 0.006464504 -0.0013685632 -0.005154957 0.00067886757 -0.0011492019 0.006409698
-0.0016829547 0.00010974592 -0.0012866606 -0.005361306 0.0022702985 0.004091967 -0.00026671233 0.000825881
-0.0013762402 0.0066371565 -0.0018504218 0.00093669485 0.0047543044 2.5863745e-05 0.0028799274 -0.002370464

weight f4 [128, 385]
00000000: 745f 10be e62c f33d 4331 6dbe 25d7 f23c
00000010: 77a4 f03d 720b 74be 5b61 57be 4066 a03d
00000020: 02f9 633b 1ebd 6d3d 7455 09bd e5dd 253d
00000030: 42e7 cebd 46d0 683e 097c cabd a951 2a3e
00000040: 72d8 3d3c 4b7e fdbd d5ec 71bd 48e2 433d
00000050: 655d d33d 39ba ba3d 3384 83bd a82a 543d
00000060: 16e7 de3d f6ba 123d 4a06 39bd 5a07 8fbe
00000070: aea5 8cbd a4f5 78bc 7a70 90bd accf 4ebd
00000080: 90e4 683c 2931 af3d 913e ba3d 8871 32bd
00000090: 2220 3a3d 7963 8f3c 968e 013d 4a78 25bd
000000a0: 8e9b b63d 1014 e23d 62ac b53d 9e01 6d3d
000000b0: a6a4 48bc 524b 61bd a13b f23c 0693 28bd
000000c0: 63bc 3ebc 8d95 be3d 919f 33be 93ec a3bd
000000d0: e058 61bd f0aa c0bd 247a dc3d f12d 87bc
000000e0: f9c8 883e b02b 853d 6c83 f6bd fbca 20be
000000f0: f42e 5a3d 8775 0d3e 3119 f5bc 3687 ec3d
00000100: 6670 9f3d fd26 41be 76ae 563e 786b 8b3d
00000110: 2e0f 01bd 4a61 42bd 6970 acbd 626d 26be
00000120: 35cf 253e 4f3c b8bd 9381 cdbd 4dce fc3d
00000130: bfd6 b839 ecfe edbd 77bb 58bd dbef cfbd
00000140: b02c ec3d 2b7a 39bd 19da df3d 7cbf 33bd
00000150: 290c 5dbe 8278 e9bd bdd9 213e db6b eabd
00000160: f3b0 7e3d 44f0 0dbb ecf4 373e b0ad 48be
00000170: 0175 b23d c6ac 4a3d 1914 aebd bc11 b93d
00000180: aec9 af3d 3df4 883e 9075 3b3d 734d 553d
00000190: ad0b 16bd 93bc 843d 7c29 143d 39c8 703d
000001a0: 0743 08be c34a 1f3e db6d 793d 15ac 92bd
000001b0: 8ef3 1cbe 6f15 dd3d a1fd d43c edff 6b3d
000001c0: f5ba 5f3d eed7 763d 7276 673d a885 3abe
000001d0: e4ba a83c 3aa9 eebd 14fb 163e 098f c03d
000001e0: 8371 1bbe 3ece 13be c42a e03c c52f b93d
000001f0: 96af 19be 7536 d4bd eeed 1cbd b281 8e3d
00000200: 795c d43d af84 90bd 01d8 54bc 2702 d7bd
00000210: 8f22 253d 5988 41bd 3b6d c23c 6918 7c3d
00000220: f62a 3c3d 8078 6fbd 9b9c 58bb 76af 1b3d
00000230: 53d0 e63d e53f 0fbd 2239 fabc d5af e93d
00000240: 0a91 a73a abfd a13c 6ec5 553d 2818 393e
00000250: 379e ffbc c5db 123e 7c44 183e ca4f bebd
00000260: 6e9b f1bb 8b01 0f3e 7af3 63bd 40f3 e93d
00000270: cbd2 f53d da06 aa3c 5acb 5639 ca09 e53c
00000280: a1f7 64bc 256c 7fbd eec0 e53c 2d05 993d
00000290: a723 ad3c a413 03bd 448d 313c 4275 433d
000002a0: 48dc 1a3d 3ebe 98bd ac85 34bd 100b b43d
000002b0: 80e3 ccbd 14e1 acbb 7412 80bd 857b 25bd
000002c0: 4463 803c 94aa 3e3b 01d1 263c a02e 39bc
000002d0: 5c08 073d e696 c83d 4730 5f3c 142d 253d
000002e0: fbd2 033e e7ac 2dba 2fc0 fe38 7170 86bd
000002f0: d326 883d e010 cb3c 93dc aabb 9103 21bd
00000300: e5d2 de3c dede 203e e459 1fbd 0fd4 00be
00000310: 4715 333e f97d 0b3e 1651 7b3d 43f9 593d
00000320: 8485 e33c b54a 99bb 37b6 97bd 3280 213e
00000330: 6bf9 813d da36 c5bd fba7 95bd 5c1b 33bd
00000340: f9d3 91bd 0d08 b43c a241 0a3d 9c33 753d
00000350: aa56 1b3d 536d c53d b1dd 9fbd e058 433c
00000360: 2fae 9ebc 8275 9a3d 4005 1cbd e3b8 aebd
00000370: 6499 afbc b948 a83d 2c48 48bb a306 8d3c
00000380: 62bd 1b3b c7ee c0bd 5bcd afbd 6963 1dbc
00000390: a09b 0b3e 6650 c33d a5b7 72bc 4cfd 6fbb
000003a0: 96db 7ebd 5d1c febc fc17 af3d 4a1b 603c
000003b0: 7b03 66bd 6aff ad3d f1d9 24be a0f8 f03d
000003c0: 1004 833c aac9 5bbd 126f d6bc 55a6 01bd
000003d0: 6c02 cfbd f2db 1d3e 9141 dcbd de1d 8e3c
000003e0: eb98 a13d 8fcc 82bd 4cfb a6bd 9dff d8bc
000003f0: 5886 fd3d 999e 67bc 0f37 003d 1386 98bd
-0.14098912 0.11873798 -0.23163323 0.029643605 0.11750119 -0.23832491 -0.21033232 0.07832003
0.0034785871 0.058041684 -0.03352876 0.04049482 -0.10102703 0.227357 -0.09886939 0.16632713
0.011587249 -0.12377604 -0.05906375 0.04782322 0.10320548 0.091175504 -0.064216994 0.051798493
0.1088392 0.03582283 -0.045172013 -0.27935296 -0.068675384 -0.015195284 -0.07052703 -0.05049102
0.01421465 0.085542984 0.09093965 -0.043565303 0.0454408 0.017503487 0.03163012 -0.04039792
0.089163885 0.11038983 0.0887077 0.05786287 -0.0122462865 -0.05500347 0.029569449 -0.041155837
-0.011641595 0.09305868 -0.17541339 -0.08004107 -0.0550164 -0.09407604 0.10765484 -0.016501399
0.2671583 0.06502473 -0.120367855 -0.15702431 0.053267434 0.13814364 -0.029919239 0.11549227
0.0778511 -0.18862529 0.20964989 0.068076074 -0.031508617 -0.047456063 -0.08419878 -0.16252664
0.16192324 -0.08995878 -0.1003448 0.12344036 0.00035255213 -0.11620888 -0.052913155 -0.10153171
0.11531961 -0.045282524 0.10930271 -0.043883786 -0.2158667 -0.11399938 0.15805717 -0.11446353
0.06218047 -0.0021658102 0.17964524 -0.19597507 0.08713723 0.049481176 -0.08499927 0.09036586
0.08583389 0.2674884 0.045766413 0.052075814 -0.03663223 0.0648128 0.036172375 0.058784697
-0.13306819 0.15555863 0.060895782 -0.07161728 -0.15327284 0.10795104 0.025999846 0.057617117
0.054621655 0.06026452 0.056509443 -0.18215048 0.020596929 -0.11653371 0.14744216 0.09402282
-0.1518002 -0.14434144 0.027364142 0.090423144 -0.15008387 -0.10361949 -0.038312845 0.06958331
0.103692 -0.070565574 -0.0129909525 -0.104984574 0.04031616 -0.047249172 0.023733726 0.061546717
0.04593941 -0.058464527 -0.0033052329 0.03800913 0.112702034 -0.034973044 -0.030544821 0.114104904
0.0012784314 0.019774279 0.052190237 0.18075621 -0.031203372 0.14341648 0.14869875 -0.09292562
-0.007373265 0.13965432 -0.05565212 0.114233494 0.12003096 0.02075522 0.00020484385 0.02795877
-0.013975055 -0.062358994 0.028046098 0.0747169 0.021135164 -0.032001153 0.010836903 0.047719248
0.037807733 -0.07458161 -0.044072792 0.087911725 -0.1000433 -0.005275855 -0.0625352 -0.040401
0.015672334 0.0029093372 0.010181666 -0.01130262 0.032966956 0.097944066 0.01362235 0.040326193
0.12873451 -0.0006625191 0.00012147461 -0.06564415 0.0664803 0.02478832 -0.005214283 -0.03931004
0.027200172 0.15710017 -0.038904086 -0.12580894 0.17488585 0.13622274 0.061356626 0.05321623
0.027773626 -0.004678095 -0.074078016 0.15771559 0.06346401 -0.09629603 -0.0730743 -0.043727264
-0.07120509 0.021976495 0.033754 0.05986367 0.037924446 0.096399926 -0.07805956 0.011923045
-0.019370167 0.07541944 -0.038090944 -0.08531358 -0.021435447 0.08216996 -0.0030560596 0.017215079
0.0023764004 -0.09420543 -0.0858409 -0.009606221 0.13633585 0.09536819 -0.014814292 -0.0036619483
-0.062221132 -0.031019384 0.085494965 0.013678381 -0.056155663 0.08495982 -0.16098763 0.117661715
0.015993148 -0.05365912 -0.02617601 -0.031652767 -0.10107884 0.15415934 -0.10754693 0.017348226
0.07890495 -0.06386673 -0.081534 -0.026489073 0.1237914 -0.014136934 0.031302508 -0.07447448

bias f4 [128]
00000000: cef0 f1bd 7387 bcbd 864b 35bd d954 4e3d
00000010: 2bf5 2a3e 8cbd 463d 814b d33d 3401 3f3e
00000020: e714 473e 9f98 19bd e489 63bd 330b 0b3e
00000030: e37d 4b3e c186 b93d 808d ef3d e07b 9f3d
00000040: 4c8e 0d3d e971 a13d 7d56 14be 1e3d 043e
00000050: c044 973b 4729 b93d 9164 593e 2a32 e43d
00000060: ce96 193e a651 373e 7abb ef3d 4749 d13d
00000070: b0f9 05be 1f73 153e 3ab1 253e dd6a d23d
00000080: 51bc 4c3e 1042 ff3d 9871 4b3e ccd9 8a3d
00000090: 9da8 db3d 2436 dc3d e5a4 6f3d 21c7 a73d
000000a0: 898e 65bd 781c 40be 9185 0e3e 94a6 e43d
000000b0: 2643 dc3d cb7d 28bd 3cbf 033d ce25 e6b9
000000c0: 77d9 d03d 22e6 b6bd 22f5 2e3e aa67 1d3e
000000d0: aa07 3c3c 5415 0c3e 5f87 f43c 38eb 86bd
000000e0: 9e64 163c a6ff ecbd 73cc b43d 95e3 713e
000000f0: df5d c3bc 3735 ca3d 656b 733c 2422 363e
00000100: e754 5f3e 9c72 863d 0f63 393e 7c1d 333d
00000110: d965 5f3b 7a1f 623e 6993 abbd b8aa e5bd
00000120: 6231 0e3e 1e52 ff3d d4ea f53d 5c66 9b3d
00000130: 55f6 1bbd e25c 673d 6831 ce3d 71b2 43bd
00000140: a430 703e 39c8 e33d a193 063c 3654 2a3e
00000150: 5268 c2bd 5a7b 10bd 04f3 183e 3778 c63c
00000160: 6ceb d83d 0b76 90bd 3a20 083e ebff 613e
00000170: 6c3c 4c3d 3128 173e 7238 8f3d 50f8 203e
00000180: f9be debd 593d 9a3d a587 1b3e ef5d a5bc
00000190: f286 4b3c d4a9 0f3e 3905 a0bd 5733 6b3c
000001a0: 3c17 fdbd 0e37 e13c ea43 d23d e18b 2c3e
000001b0: 0f7d 1c3e 3e8b e5bd fe76 30bd 64f7 a33d
000001c0: 58a8 1cbe 3674 0b39 5851 033e d84f 1bbc
000001d0: fccd b0bd 2eb3 cdbc 0950 993d c047 0b3e
000001e0: bb5a 363e fcdd cc3d 0c2c 113d 4945 263e
000001f0: 42ef 0c3e 0f37 403d 210a 043e d3d4 a2bd
-0.11813508 -0.092055224 -0.044261478 0.050373886 0.16695087 0.04852061 0.103171356 0.18652803
0.19441567 -0.037499066 -0.055551425 0.13578491 0.1987224 0.090589054 0.11696911 0.07787299
0.034559533 0.07883055 -0.14486118 0.1291394 0.00461635 0.09041076 0.2122977 0.111423805
0.14998934 0.1790224 0.1170568 0.10219055 -0.1308353 0.14594696 0.16180888 0.10274289
0.19993712 0.12463772 0.19867551 0.06779823 0.1072552 0.10752514 0.058506865 0.08192278
-0.056044135 -0.1876086 0.13918139 0.11164585 0.10754995 -0.04113559 0.032164797 -0.00043897185
0.10197728 -0.08930613 0.17085698 0.15371576 0.011476437 0.13680011 0.029849706 -0.06587833
0.009179262 -0.115721986 0.08828058 0.23621972 -0.023848472 0.09873431 0.014857148 0.17786461
0.21809731 0.06564829 0.18104194 0.04372929 0.0034087806 0.2208232 -0.08377726 -0.11214203
0.13886026 0.124668345 0.120076805 0.07587883 -0.038076717 0.056485064 0.10068017 -0.047777597
0.23456055 0.11122174 0.008213908 0.16633686 -0.09492554 -0.035273887 0.14936453 0.024227245
0.10591778 -0.07053765 0.13293543 0.22070281 0.04986231 0.14761426 0.06993188 0.15719724
-0.10876269 0.075312324 0.15188463 -0.020186393 0.01242231 0.14029628 -0.07813496 0.014355502
-0.12357947 0.027492072 0.1026686 0.16850235 0.15282081 -0.11208199 -0.04308223 0.080061704
-0.15298593 0.00013299365 0.12823999 -0.009479485 -0.086330384 -0.025109854 0.074859686 0.13601589
0.17808048 0.10003278 0.035442397 0.16237368 0.13763145 0.046927508 0.12894489 -0.07950749

weight f4 [128, 128]
00000000: f798 94be 90be adbe e058 843d e49b a239
00000010: ab7d 1a3e a92c 0a3e fec7 afbc 61ec 4d3e
00000020: f343 ea3d 6cc1 7abe 0da7 cfbe 0e40 02be
00000030: 9f5c a93c 02c9 803c e161 603e c27b 3ebc
00000040: 9337 133e 3f7a 913e daf4 ebbe 5d27 fd3c
00000050: 9306 e23d 76d9 183e 4098 1f3e 24e7 3d3e
00000060: fe54 a0bd 8921 463e b354 843d a1c8 873e
00000070: fcac 76be 80db 2b3d 33ae 383e 654f c0bd
00000080: e3db 573e e602 163d 20ae 213e a048 553e
00000090: e5f4 9b3e 7b60 b03d 9a5f 163e 197b 08be
000000a0: 41e3 94be 350d a5be 4889 ac3e 91ed 693e
000000b0: 0765 473e 3c12 77be 6d5a bc3c 97b9 623d
000000c0: 1771 a33d db20 69bd 5d73 9bbd c7e5 343d
000000d0: dc03 45bc 238b 9d3d f4a1 643e fa6a 17be
000000e0: cdc8 e6bd b159 d8bd 7458 6abd c1d9 633b
000000f0: e055 ee3d 7f65 39bd 84f8 f5ba 79d5 523d
00000100: 9880 003c fdff 0d3e eefb a73d f27f 823d
00000110: 7ffa e0bd 3576 fa3d aedc a0be 9abc 2ebe
00000120: 8c9e 3cbe 89fd c43c 2f36 313e 7a09 49bd
00000130: 3ddb 66be ee0f 9f3c 00d0 37bd 2d3c 843d
00000140: 844d 8a3d 66af bebc 2505 093e d2aa 233e
00000150: d439 34be 551c 28be d614 7a3e 5e6e eabd
00000160: 9020 4d3c c134 3ebd b2c7 5cbd c483 323d
00000170: 0f5f 7a3c 33dc 133e 820f e13d 54bb 9e3d
00000180: ff74 dbbe ba3a 23bd b625 013e c172 e1bc
00000190: 5394 d93c 9fa8 873e 0997 86be d617 17bd
000001a0: 728a 29be 24e8 f93b bca7 0e3e b082 6f3e
000001b0: a91b 3e3e 01f7 7ebe eacb 9dbe cd05 383e
000001c0: c159 58be 3a46 d83d 7038 ad3d a2db bfbd
000001d0: 0191 e3be 2f4d 013c f0d1 573d 6a9a bebd
000001e0: 3bb1 b13d 8306 593e afd4 f3bd d581 423d
000001f0: 8bdb 4dbc 4a4f 3e3e 5e29 d2bd c573 48be
00000200: 9c44 253d 99ee 7b3d 02c0 ed3d c732 abbc
00000210: 5e45 693e 5d1b 8d3c a3d8 2dbe ba88 e7bd
00000220: 657e 5cbd 3ca8 013e 52d2 78bd 5591 633e
00000230: a6ac 11bc 73d6 12bd 2868 723e c870 603c
00000240: ca8f 57bd 5d34 7f3d 97ae 74be e73c c4bd
00000250: f562 c5bc b506 283d 4a84 8abd 811e 92bb
00000260: 64c0 1dbd ae86 ec3d 1362 893d 00f5 49bc
00000270: 4095 5bbd 545b 313e 7801 9a3d 1de9 7d3d
00000280: cd10 a7bd cdcf 06be b039 97bd d8cc 4dbe
00000290: 134c 0bbd 4b82 0f3e 9f55 9abd 501a a93d
000002a0: 66b2 843e 0967 f3bd a7b3 0e3e a845 d7bd
000002b0: 4972 ca3b f249 6e3e 7f39 a03d aadc 3a3d
000002c0: 84ef 8cbd 0031 6d3d f26e 1f3e 57d5 c03d
000002d0: 7ca7 e33d 971c 923e 62d7 e93d eba4 5abd
000002e0: 5a18 2d3e c8e9 9e3d a0e4 08bd d484 a13d
000002f0: 22a6 76bd 0674 34be 1725 9bbd d892 993c
00000300: 0c3c 18be 2b7a b43b 0dec 263e db4a 51bb
00000310: 730a dfbd 14af a3bc 1162 b4be e2e7 1f3e
00000320: 1e72 abbc 77d2 403e c1d7 2d3e 810a 9a3c
00000330: 8f3e 953d 53fe f4bd cdd9 9fbd 9bbc 27bd
00000340: 8520 003b f497 2e3e 1721 0b3e c96b fc3a
00000350: c069 5c3d d7a0 123e 0887 073e 3fe7 98bd
00000360: e4f4 15be f1a6 c03c d50a 563e 1009 df3a
00000370: 29df 313c 4566 b83b 22f8 53be fdff 103e
00000380: daf4 33be 269e 543d 29a0 ed3c 5fd3 5ebd
00000390: 0a33 8f3b 9704 08be 46da 3c3c 92f8 2c3d
000003a0: e2b6 033e bab2 8d3d 1f77 c23e 0f37 cb3d
000003b0: bcd8 44be 7e0f f1bd ab7b ab3d 4a13 e9bd
000003c0: 5125 333e 8226 5a3e 7152 ad3b 230a 08be
000003d0: 778e 0e3e 119b 0d3e 5c8d 903d 360a 343d
000003e0: e2e7 e1bd 7e4d 82bc 7bbe 26bc dcf1 87be
000003f0: 800b 2b3d f902 873e a410 b93d f120 5b3e
-0.29022953 -0.3393445 0.06462264 0.00031015195 0.15087001 0.13493599 -0.021457668 0.20109703
0.114387415 -0.24487847 -0.40557137 -0.12719747 0.020674048 0.015720848 0.21912338 -0.011626186
0.14376669 0.2841358 -0.46085244 0.030902559 0.1103641 0.14926705 0.15585423 0.18545204
-0.07828711 0.1934873 0.064614676 0.26520255 -0.24089426 0.04195738 0.18035202 -0.09390143
0.21079974 0.036623858 0.1578908 0.20828485 0.30460277 0.08612152 0.14684907 -0.13328208
-0.2907963 -0.3223664 0.33698487 0.2284453 0.19472133 -0.2412805 0.022992337 0.055352774
0.079805546 -0.0569161 -0.07590363 0.044164445 -0.012024846 0.07692554 0.22327405 -0.14786902
-0.112687685 -0.10563982 -0.05721326 0.0034767243 0.11637473 -0.04526281 -0.001876608 0.051473115
0.007843159 0.13867183 0.08202349 0.0637206 -0.10985278 0.122295775 -0.31418365 -0.17064133
-0.18419856 0.024046676 0.17305826 -0.049081303 -0.2254457 0.019416776 -0.0448761 0.0645679
0.06753066 -0.023276996 0.13380869 0.15983132 -0.17600185 -0.16417058 0.24422011 -0.11446832
0.012519971 -0.04643703 -0.05390138 0.043582693 0.015281453 0.14439468 0.10989286 0.07750574
-0.42862698 -0.039850928 0.12612042 -0.02752054 0.026559984 0.26495835 -0.26287106 -0.036887966
-0.16556719 0.0076265503 0.13931173 0.23389697 0.18565239 -0.24898912 -0.30819637 0.17970963
-0.21127988 0.1056027 0.0845803 -0.093680635 -0.44446567 0.007891937 0.052690446 -0.09306796
0.08676382 0.2119389 -0.119058006 0.0474871 -0.01256455 0.18584934 -0.102617964 -0.19575413
0.040348634 0.06150684 0.11608888 -0.020898236 0.22780368 0.017224962 -0.16977172 -0.113053754
-0.053831477 0.12661833 -0.060747452 0.22223409 -0.00889126 -0.035849046 0.23672545 0.013698764
-0.052627362 0.062305797 -0.23894726 -0.09581929 -0.024095038 0.04102202 -0.067635134 -0.0044592028
-0.038513556 0.115491256 0.06708159 -0.012326479 -0.053609133 0.17319995 0.075198114 0.061989892
-0.08157501 -0.13165207 -0.0738405 -0.20097673 -0.034008097 0.14014547 -0.07535862 0.08256972
0.25917357 -0.11884887 0.1393572 -0.10511333 0.0061781746 0.23270395 0.078234665 0.045620598
-0.068816215 0.05790806 0.15569666 0.09415691 0.111159295 0.28537437 0.11418034 -0.053379934
0.1690382 0.07759434 -0.03342116 0.07886663 -0.06021703 -0.17622384 -0.07575434 0.018746778
-0.14866656 0.0055077276 0.16300984 -0.0031935486 -0.10890665 -0.019980945 -0.3523107 0.156158
-0.020928439 0.18830286 0.16976835 0.018803837 0.07287323 -0.11962571 -0.07805214 -0.040951353
0.0019550633 0.17050153 0.13586842 0.0019258197 0.05381179 0.14319168 0.13235104 -0.07465982
-0.146442 0.023517104 0.2090257 0.0017016251 0.010856428 0.005627426 -0.20700124 0.14160152
-0.17573872 0.051908635 0.029007034 -0.054400798 0.004370098 -0.13283001 0.01152665 0.042229243
0.12862733 0.06918855 0.37981507 0.09922611 -0.19223303 -0.11770533 0.08373197 -0.11380632
0.17494704 0.21303752 0.005289369 -0.13285117 0.13921534 0.13828684 0.07058212 0.04395505
-0.11030556 -0.015906092 -0.01017725 -0.26551712 0.041759014 0.26369455 0.09036377 0.21399285

bias f4 [128]
00000000: fa93 d4bd 0919 22bd c26d 303c e4a8 f5bd
00000010: 1d5b 5f3d 7945 69be 3100 3cbd 3807 22bc
00000020: 0c2e c63d 7176 b0bd 37d4 e23b 4706 bb3d
00000030: 94d6 ebbd 441c 6ebe aa27 47be b1c3 e93c
00000040: d117 31bd f7ca efbd d3d8 adbd 3bb1 4ebe
00000050: 8deb a33d 9dd7 e93b 1843 a1b9 6232 973d
00000060: 31df 7ebc 8c59 283e 633f f6bf 7b12 423d
00000070: cc24 583d 8d7e 15bc 78d7 8a3d a480 7dbe
00000080: c941 2e3d 07a8 9f3d 556d fcbd 2a5e 703e
00000090: 9dbd f33c 21de 593e ff63 d2bd c17c bf3d
000000a0: 67ed 503e 0a5e 833e 921a 043e 7a60 3c3d
000000b0: 13c1 1c3e d29d a03b 65c0 153c 99a3 e53d
000000c0: 55cd 0ebd d932 173e 53d8 a93c ecc7 34bd
000000d0: 17b6 56bd 08ab 653d adc9 1cbd 0f5f 2e3e
000000e0: 1e03 d63d 0af3 103d b1d4 4a3d eb27 65bb
000000f0: ca4d 27bd f5a4 8fbd 0793 323e 4969 b5bd
00000100: bd16 0b3e 70ac 27bd 8f7d 6c3d 80a9 4cbe
00000110: 7609 c93d 20b4 783d a570 8f3c 4de6 cebc
00000120: f403 a9bc d7b1 5fbd bcf8 10be 48a9 3c3e
00000130: c35d adbd 6425 cabd a9c3 e4bc 516c 1c3c
00000140: 1d61 c03d e35e eebc 7ae5 43bd 1ded a2bd
00000150: 5ef6 8cbd 62cf b33d 8686 dcbd ea94 02bd
00000160: b554 873e 18f1 723d f718 733d deb5 bcbd
00000170: c800 59be d857 a0bb 31c6 0e3d f2f4 a83d
00000180: d484 e8bd e6ef 083e f31a 813d ad28 bdbd
00000190: 042a b6bd 72b1 3f3e 42e5 113d 3216 ecba
000001a0: 179c cc3d 7826 ca3c d289 d03d 1556 84bd
000001b0: 3662 84bd f937 1a3b 1fa8 a5bc 0315 c13d
000001c0: e340 093d 8346 1b3e 1712 303e 91dd 92bd
000001d0: 6241 2c3e e0ec ddbd 9183 8d3d 3a14 79bb
000001e0: 485a 543e 71f8 70bd cb34 203e 291a df3d
000001f0: 2170 1c3e c462 3bbd 1d52 563d 3441 4c3e
-0.10379787 -0.039574657 0.010768356 -0.11995104 0.05453025 -0.22780408 -0.04589862 -0.009889416
0.096767515 -0.08616341 0.0069222706 0.09132057 -0.11515537 -0.2325297 -0.19448724 0.028535696
-0.043235604 -0.11708634 -0.084886216 -0.20184796 0.08003912 0.007136299 -0.00030758302 0.07382657
-0.015556143 0.1644041 -1.9238094 0.047380906 0.052769467 -0.00912441 0.06779379 -0.24756104
0.042543206 0.077957205 -0.12325541 0.2347342 0.0297535 0.21276142 -0.10272979 0.09349967
0.20403062 0.25657684 0.12900761 0.045990445 0.15308027 0.004901626 0.009140109 0.112128444
-0.03486379 0.1476549 0.020733034 -0.044135973 -0.05241975 0.05607131 -0.03827827 0.1702845
0.10449813 0.03538803 0.049519245 -0.003496642 -0.04084567 -0.07013885 0.17438899 -0.08857972
0.13582893 -0.040935934 0.05773693 -0.19986534 0.09816258 0.060718656 0.017509768 -0.0252563
-0.020631768 -0.05461296 -0.14157385 0.1842395 -0.08465149 -0.09870413 -0.02792533 0.009547309
0.09393523 -0.02909798 -0.047826268 -0.07955382 -0.06882928 0.087797895 -0.10767846 -0.031880297
0.26431814 0.059311956 0.05934998 -0.09214376 -0.21191704 -0.0048932843 0.03485698 0.082498446
-0.1135346 0.13372764 0.06303968 -0.09236274 -0.088947326 0.18720034 0.035619028 -0.0018011986
0.09990709 0.024676546 0.10182537 -0.06461731 -0.06464045 0.0023531897 -0.020221768 0.09427836
0.033509146 0.15163617 0.171944 -0.07171167 0.16821817 -0.10836196 0.0690986 -0.003800644
0.20737565 -0.058830682 0.15645139 0.108936615 0.15277149 -0.045748487 0.052324403 0.19946748
