examples/z_model.pth (torch, 212856 bytes, 10 tensors)

weight f4 [128, 9]
-0.23407431 -0.0004980351 -0.30757692 -0.08293489 -0.03734881 0.2582934 0.29595223 0.14847316
-0.12189914 -0.49833205 -0.23158829 0.20036846 0.36313784 -0.01372953 -0.047895905 -0.18586437
0.11447063 0.23804969 -0.13726552 -0.02419592 -0.26241764 -0.4751194 0.27248633 0.043248273
0.14078441 0.16657199 0.07307424 -0.21417895 -0.26611477 -0.017965604 0.25778338 -0.08337266
0.27381548 0.15621504 -0.09440465 -0.036208194 0.046069503 -0.21262729 0.14265612 0.3469212
-0.063741885 -0.28223717 0.05071807 0.0991576 -0.12280214 -0.1480942 0.21941243 -0.16198534
-0.074406825 -0.29198048 0.16714495 0.2744915 -0.013306756 -0.20876135 0.23094673 0.1793655
0.33108863 0.37897193 -0.1063777 -0.093862414 0.08221523 0.17994156 -0.18762778 0.3673726
-0.15591525 0.35184675 0.42554125 0.10625039 -0.34093863 -0.111813635 -0.12483019 0.25182226
0.18607868 -0.2635862 0.12548305 -0.057599425 -0.17110577 0.13901274 -0.47508162 0.1854476
-0.17642406 -0.4948895 0.009008394 0.041721124 0.38076186 -0.19372396 0.037250187 0.36983684
0.04300498 0.037328295 -0.038058903 -0.37926263 0.1720236 -0.16422096 -0.0834192 -0.1696941
-0.39218584 -0.464214 0.4051042 0.052342784 0.4968108 0.044538572 -0.49989778 -0.061736736
0.11612919 0.33611557 -0.2640874 -0.44194376 -0.6985494 -0.23923932 0.15594277 0.1373261
-0.114217244 0.15921298 0.0019052491 0.24004807 0.32205123 0.2788429 -0.048682127 0.015052072
0.22839457 -0.1670784 0.13280195 -0.33596468 0.028708078 0.049944617 -0.07498513 -0.048774872
-0.34228638 -0.17813557 0.07389812 0.18489625 0.31943572 0.040221736 -0.08394579 -0.46377596
-0.35808545 0.18318532 0.41448683 -0.051603526 0.12082359 0.005275274 0.18897386 0.14588147
-0.3352418 0.4525078 -0.03008829 -0.50411636 0.07466841 0.33855695 0.26260403 -0.2548811
-0.044856843 -0.30295396 -0.2062239 0.31683576 -0.21261144 0.15156181 0.05704583 0.20084052
-0.022416765 -0.07722905 -0.004052169 0.19849822 0.23427714 0.11315819 0.18903926 -0.11143186
-0.36305666 0.084168226 0.18080622 0.28359708 0.29006538 0.06107995 -0.2923595 -0.38233697
-0.062191095 0.32713962 0.14305167 -0.13690478 -0.34422266 0.33949664 0.058955733 -0.3772582
-0.16696458 -0.33137614 0.28581408 0.31711748 -0.4740747 0.30730948 -0.36695695 -0.107777886
0.13773157 -0.025220647 0.18830477 -0.01940432 0.09379397 0.28104872 0.13963793 -0.26348618
0.12964275 -0.05701246 -0.13014744 0.061752036 -0.24416673 0.2101006 -0.034871433 -0.09959404
0.20264205 0.33053702 0.30121538 -0.2354715 0.17524414 -0.25835478 -0.030786296 0.32766804
-0.22249553 -0.24128948 0.08487001 -0.026907954 0.24098374 0.31911528 0.056052092 -0.33909243
0.2681249 0.23287883 0.38346553 0.20141879 0.34313008 -0.16271706 0.16212907 -0.020356704
-0.114448324 -0.13480331 0.35891867 -0.10258657 0.0643358 0.22705695 -0.05375148 -0.23423901
-0.057109144 0.06667365 0.09331094 0.11224938 -0.24980836 -0.14444846 -0.37601012 -0.027183114
0.2749843 0.05308528 0.21455938 0.12403284 -0.011896112 0.29069734 -0.3094143 -0.27456173
00000000: 2db1 6fbe 928e 02ba b97a 9dbe c5d9 a9bd
00000010: 11fb 18bd 083f 843e 0d87 973e 5909 183e
00000020: 42a6 f9bd 6125 ffbe 7b25 6dbe 642d 4d3e
00000030: 34ed b93e d3f1 60bc 7f2e 44bd 3b53 3ebe
00000040: 946f ea3d 4cc3 733e 558f 0cbe 8636 c6bc
00000050: 9b5b 86be da42 f3be 5483 8b3e 1a25 313d
00000060: ca29 103e d991 2a3e f2a7 953d ba51 5bbe
00000070: 3240 88be 9a2c 93bc 2ffc 833e 49bf aabd
00000080: 8b31 8c3e d6f6 1f3e 3a57 c1bd 0b4f 14bd
00000090: 60b3 3c3d f8ba 59be 7214 123e a89f b13e
000000a0: 1b8b 82bd 6481 90be c0bd 4f3d 2413 cb3d
000000b0: b07f fbbd 02a6 17be a7ad 603e 7cdf 25be
000000c0: 9b62 98bd 777e 95be 0c28 2b3e 268a 8c3e
000000d0: 9404 5abc 89c5 55be 4d7d 6c3e 97ab 373e
000000e0: 7384 a93e 9c08 c23e 8ddc d9bd f03a c0bd
000000f0: 7560 a83d 9a42 383e 7f21 40be 4318 bc3e
00000100: 3fa8 1fbe 4225 b43e 8be0 d93e ce99 d93d
00000110: 828f aebe 8cfe e4bd f8a6 ffbd d9ee 803e
00000120: 698b 3e3e c5f4 86be a17e 003e 60ed 6bbd
00000130: 5a36 2fbe 5b59 0e3e e63d f3be fae5 3d3e
00000140: 82a8 34be 2862 fdbe f197 133c c5e3 2a3d
00000150: 38f3 c23e 935f 46be a793 183d 415b bd3e
00000160: fd25 303d 8ee5 183d a7e3 1bbd b62e c2be
00000170: f426 303e 8a29 28be afd7 aabd 4ac4 2dbe
00000180: 95cc c8be 75ad edbe d169 cf3e 6365 563d
00000190: fc5d fe3e 146e 363d 9af2 ffbe a9df 7cbd
000001a0: 24d5 ed3d 5717 ac3e 7736 87be 7446 e2be
000001b0: 22d4 32bf 27fb 74be 76af 1f3e 379f 0c3e
000001c0: bbea e9bd ba08 233e 8db9 f93a 29cf 753e
000001d0: e6e3 a43e 7fc4 8e3e e966 47bd f79c 763c
000001e0: 44e0 693e 9a16 2bbe 3cfd 073e 9003 acbe
000001f0: 342d eb3c ba92 4c3d ce91 99bd 29c8 47bd
00000200: 2940 afbe 2c69 36be e657 973d 7155 3d3e
00000210: 148d a33e 8cbf 243d c5eb abbd 0b74 edbe
00000220: fa56 b7be ef94 3b3e 9e37 d43e 385e 53bd
00000230: 5c72 f73d 35dc ac3b 5d82 413e f461 153e
00000240: d0a4 abbe 1aaf e73e b87b f6bc c50d 01bf
00000250: c0eb 983d 5657 ad3e 0974 863e c77f 82be
00000260: cfbb 37bd c81c 9bbe 5c2c 53be 4c38 a23e
00000270: d0b6 59be 0533 1b3e e3a8 693d 23a9 4d3e
00000280: 5da3 b7bc 442a 9ebd 0fc8 84bb 1e43 4b3e
00000290: 59e6 6f3e 7bbf e73d 8293 413e 6336 e4bd
000002a0: 90e2 b9be 6460 ac3d 4425 393e a333 913e
000002b0: 7383 943e f82e 7a3d 25b0 95be acc1 c3be
000002c0: 17bc 7ebd d87e a73e 237c 123e c430 0cbe
000002d0: f43d b0be 81d2 ad3e 917b 713d fd27 c1be
000002e0: c3f8 2abe 22aa a9be 3956 923e 395d a23e
000002f0: ebb9 f2be ab57 9d3e c8e1 bbbe a7ba dcbd
00000300: 8109 0d3e 889b cebc f7d2 403e cff5 9ebc
00000310: 0e17 c03d 9ee5 8f3e 3ffd 0e3e a9e7 86be
00000320: 12c1 043e e685 69bd 5f45 05be b4ef 7c3d
00000330: d806 7abe 9d24 573e 59d5 0ebd f6f7 cbbd
00000340: 6681 4f3e 263c a93e e738 9a3e 711f 71be
00000350: 3373 333e 1447 84be 8b33 fcbc 1bc4 a73e
00000360: ded5 63be 9714 77be 54d0 ad3d 126e dcbc
00000370: 71c4 763e 1463 a33e e196 653d 869d adbe
00000380: ab47 893e ca77 6e3e 9855 c43e ba40 4e3e
00000390: bfae af3e 4d9f 26be 2a05 263e 1ac3 a6bc
000003a0: e263 eabd e109 0abe 30c4 b73e e818 d2bd
000003b0: 7dc2 833d 9e81 683e 832a 5cbd 5adc 6fbe
000003c0: 47eb 69bd 328c 883d ce19 bf3d 01e3 e53d
000003d0: c3cd 7fbe 4cea 13be 6684 c0be 1faf debc
000003e0: beca 8c3e f36f 593d 74b5 5b3e ee04 fe3d
000003f0: e9e7 42bc 48d6 943e 8d6b 9ebe 5b93 8cbe

bias f4 [128]
-0.052338295 0.22282097 -0.08408593 0.1221084 -0.090522215 0.07416991 0.041942902 -0.32256097
-0.11846479 0.24327369 -0.2052664 0.06449325 -0.11987979 -0.20867307 -0.016455725 0.10523603
0.12728143 -0.014319708 -0.16898063 -0.3479688 0.14022934 -0.116642706 -0.1440864 -0.28085098
0.11547899 0.071519524 -0.19254574 -0.25409034 0.067795806 0.14823057 -0.1939298 0.17110617
-0.07855019 -0.30740115 0.05598832 0.19136608 0.017268134 0.18499523 -0.16513805 -0.08868851
-0.13176945 0.12329512 -0.036603514 -0.1766492 0.36112863 0.19216897 -0.21522242 0.0067654196
-0.17610855 -0.16650933 -0.00021628304 0.11194125 0.056733936 0.08530401 -0.24603564 -0.23831387
-0.16573215 0.1311219 0.21866159 -0.06496369 -0.08827374 0.17726175 0.047363877 0.1273094
-0.006185052 -0.12929648 0.15598617 -0.08502902 -0.06144335 -0.09653895 -0.09872988 -0.27650404
0.078967325 -0.02624428 -0.072951846 -0.329008 -0.109345645 0.16110699 -0.17815906 0.021879321
-0.3223103 -0.2239685 0.10073877 0.10094967 -0.2573384 -0.23290154 -0.051476456 0.2317372
0.14541039 0.10755512 -0.39112398 -0.23111615 0.03593391 -0.089130215 0.17035978 -0.122100435
-0.17209397 0.17320581 -0.2257482 0.16792743 0.05994606 -0.1681293 -0.093946695 -0.23568766
-0.19994211 -0.14399025 -0.1704335 -0.112450935 0.28976795 -0.14363049 -0.018583199 0.3452284
0.020919314 0.16256288 -0.07648565 -0.18625315 -0.09139905 0.18629144 -0.22569986 -0.32988524
0.011953061 -0.12489386 -0.153813 -0.0028223528 -0.12103961 -0.24696264 0.050137613 0.054340612
00000000: ae60 56bd 2e2b 643e 3e35 acbd f813 fa3d
00000010: b663 b9bd 65e6 973d 52cc 2b3d b626 a5be
00000020: ab9d f2bd bd1c 793e 5b31 52be 0915 843d
00000030: 8983 f5bd 65ae 55be 28ce 86bc fd85 d73d
00000040: 1056 023e 359d 6abc 4209 2dbe f728 b2be
00000050: 4898 0f3e 5fe2 eebd 638b 13be b3cb 8fbe
00000060: 4080 ec3d d478 923d b62a 45be 2118 82be
00000070: 87d8 8a3d c1c9 173e 8995 46be 7536 2f3e
00000080: ecde a0bd af63 9dbe 0254 653d 78f5 433e
00000090: e775 8d3c 646f 3d3e f319 29be 52a2 b5bd
000000a0: 92ee 06be 2782 fc3d 91ed 15bd 87e3 34be
000000b0: dae5 b83e f1c7 443e 4463 5cbe 74b0 dd3b
000000c0: cd55 34be 6c81 2abe 09ca 62b9 7441 e53d
000000d0: d861 683d deb3 ae3d c4f0 7bbe 8d08 74be
000000e0: b0b5 29be d244 063e d3e8 5f3e af0b 85bd
000000f0: ddc8 b4bd 1b84 353e a000 423d 655d 023e
00000100: faab cabb 4c66 04be d7ba 1f3e b223 aebd
00000110: 06ac 7bbd 37b6 c5bd e432 cabd f091 8dbe
00000120: 9fb9 a13d 3ffe d6bc c767 95bd bd73 a8be
00000130: 9cf0 dfbd 3bf9 243e 546f 36be 433c b33c
00000140: db05 a5be 0058 65be 2150 ce3d b3be ce3d
00000150: dcc1 83be be7d 6ebe fad8 52bd 844c 6d3e
00000160: 76e6 143e dc45 dc3d 6741 c8be b6a9 6cbe
00000170: 702f 133d e789 b6bd cb72 2e3e cb0f fabd
00000180: 6739 30be dd5c 313e 892a 67be 2bf5 2b3e
00000190: 008a 753d 162a 2cbe 2067 c0bd 1b58 71be
000001a0: a0bd 4cbe 2e72 13be 1f86 2ebe ad4c e6bd
000001b0: 775c 943e df13 13be cb3b 98bc c7c1 b03e
000001c0: fb5e ab3c e276 263e 82a4 9cbd 25b9 3ebe
000001d0: 6d2f bbbd 2fc3 3e3e dd1d 67be b8e6 a8be
000001e0: c6d6 433c 5ac8 ffbd 2881 1dbe 39f7 38bb
000001f0: 9de3 f7bd c6e3 7cbe 195d 4d3d 4394 5e3d

weight f4 [128, 128]
0.14043926 0.077308685 0.18553366 0.06353599 0.19475871 -0.04411183 -0.028303858 0.2869394
0.07697773 -0.026832968 0.16458368 -0.14480318 0.16393821 0.08492723 0.07618862 0.10713088
0.13583583 0.3011708 -0.04371182 -0.029432101 -0.11081348 0.11535844 0.0074345204 0.04638495
0.32474697 0.03274851 0.13854058 0.14010851 -0.0410789 -0.040722538 -0.0023746525 0.12025548
0.24604589 0.010750726 0.10371192 0.033848047 -0.010971961 0.1214198 -0.07884627 -0.028854989
0.052558612 -0.06063002 -0.109831885 0.12746723 0.097154416 0.036414694 -0.12488252 0.02407218
0.097735524 0.3107064 0.043870132 0.16731548 -0.15535031 0.31300336 0.16052815 -0.06746527
0.1527428 0.12257941 -0.13840383 0.096781 -0.013960261 -0.052690756 0.063323334 0.10775306
0.07684543 0.011871462 -0.052243106 0.13043079 0.20998311 0.2362493 0.07869839 -0.013216596
0.0733382 0.014355432 0.11095855 0.021014335 0.024312826 0.016118973 0.13757128 -0.1209308
0.067615055 0.1215636 0.027878346 0.12586354 0.2533042 -0.06168799 0.06370025 0.2646389
-0.0031296357 0.091651 -0.025218591 -0.022337424 0.14977777 0.08715444 0.015913652 0.110143065
0.250904 0.09712842 0.108723186 0.16497476 0.04979929 0.058075413 -0.13911887 0.13597058
-0.11260254 -0.11255508 -0.078350805 0.02867505 0.1439697 0.20250838 0.043626677 0.15178522
0.054683346 0.13309534 0.19027652 -0.0017836664 0.0312055 0.08273907 0.26318872 -0.0049016955
0.22839975 -0.10332601 0.0931941 0.014884522 0.30595767 0.3128044 0.25076878 -0.27916113
0.031440698 0.01893895 -0.1212673 0.12175367 0.12472608 0.06520532 0.020551799 -0.20195034
-0.076322444 0.062131133 -0.42972827 -0.13911709 0.11963883 -0.11488228 0.14997616 0.13392492
-0.06363716 -0.024234265 -0.19708978 -0.11751659 -0.0047005257 0.11479036 -0.06765956 -0.15854532
-0.07483456 -0.13280532 -0.10990256 0.14693421 0.013368921 -0.11331009 -0.4407157 0.08512463
-0.24217738 -0.08484682 0.026253672 0.10201602 -0.012942397 -0.069761425 0.021005666 -0.119314164
0.061531637 0.092513606 -0.11512471 -0.15006661 0.11464412 0.017852431 -0.21341316 0.0077845748
0.04510744 0.056656376 0.1996327 -0.02528577 -0.06194203 -0.21584657 -0.12415985 -0.06979882
-0.2442376 -0.030054536 -0.03878077 -0.049690414 -0.16118865 -0.18742765 -0.13501687 0.23054798
0.034544375 -0.07217964 0.013086399 -0.2793038 -0.18373235 0.0013064778 -0.1379474 -0.18712093
-0.20437333 0.040253296 -0.24600738 -0.23918216 0.29166391 -0.025204435 -0.059388507 -0.05863701
-0.40203953 -0.11914377 0.1856167 -0.12539384 -0.28003243 -0.2657879 -0.12356365 0.11306097
0.011002118 0.077961065 0.017583957 0.0582322 -0.33352083 0.23649661 -0.017543547 -0.07326423
-0.107769005 -0.028559228 -0.43505514 0.0012774584 -0.008930962 0.07087463 -0.053954527 -0.2945164
-0.026113449 -0.2140485 -0.10303686 -0.094346695 0.089322336 0.10806171 0.03264121 0.14488763
0.10006518 0.073672645 0.019576242 -0.08448844 0.025572153 -0.04779741 0.0049860324 0.007889068
-0.032629296 0.029911852 -0.10401612 0.09303281 0.032622136 0.15024526 -0.15526834 0.0155752245
00000000: 4fcf 0f3e 0454 9e3d 89fc 3d3e 281f 823d
00000010: d46e 473e 9bae 34bd 7edd e7bc b9e9 923e
00000020: 80a6 9d3d d0d0 dbbc a088 283e 4947 14be
00000030: 6bdf 273e 54ee ad3d c708 9c3d 6f67 db3d
00000040: 8c18 0b3e 0f33 9a3e 2a0b 33bd 971b f1bc
00000050: 2ef2 e2bd 0c41 ec3d 479d f33b 25fe 3d3d
00000060: 3c45 a63e 4d23 063d 95dd 0d3e 9b78 0f3e
00000070: 5942 28bd adcc 26bd 0fa0 1bbb 8148 f63d
00000080: 74f3 7b3e d023 303c ea66 d43d 40a4 0a3d
00000090: bdc3 33bc f2aa f83d 277a a1bd 4c61 ecbc
000000a0: b347 573d 2f57 78bd 8aef e0bd c586 023e
000000b0: e5f8 c63d 9327 153d 68c2 ffbd 0533 c53c
000000c0: 9029 c83d e914 9f3e 2bb1 333d c054 2b3e
000000d0: 2714 1fbe fa41 a03e 7e61 243e 3b2b 8abd
000000e0: 9c68 1c3e ea0a fb3d bcb9 0dbe 1e35 c63d
000000f0: 94b9 64bc 43d2 57bd aaaf 813d a3ad dc3d
00000100: 2361 9d3d 8580 423c defc 55bd a68f 053e
00000110: d005 573e 56eb 713e 9f2c a13d 6c8a 58bc
00000120: 5732 963d 0c33 6b3c 3c3e e33d 4126 ac3c
00000130: b12b c73c f00b 843c 7cdf 0c3e 91aa f7bd
00000140: c379 8a3d 56f6 f83d 2161 e43c 5fe2 003e
00000150: 17b1 813e 8cac 7cbd 4775 823d c07e 873e
00000160: 931a 4dbb 85b3 bb3d 3897 cebc f9fc b6bc
00000170: 585f 193e 077e b23d 595d 823c b092 e13d
00000180: 7d76 803e 44eb c63d 43aa de3d 25ef 283e
00000190: 57fa 4b3d 7ce0 6d3d 2d75 0ebe df3b 0b3e
000001a0: 299c e6bd 4783 e6bd 6376 a0bd f0e7 ea3c
000001b0: cb6c 133e 5b5e 4f3e e3b1 323d 966d 1b3e
000001c0: a5fb 5f3d 254a 083e d9d7 423e eac9 e9ba
000001d0: ada2 ff3c 1a73 a93d acc0 863e 679e a0bb
000001e0: a0e1 693e 969c d3bd 8cdc be3d 36de 733c
000001f0: 7ca6 9c3e e627 a03e c464 803e 35ee 8ebe
00000200: f6c7 003d db25 9b3c fd5a f8bd fd59 f93d
00000210: 6370 ff3d 5e8a 853d 3f5c a83c 12cc 4ebe
00000220: f14e 9cbd 377d 7e3d 5805 dcbe b674 0ebe
00000230: 3405 f53d 6747 ebbd 5a93 193e 9d23 093e
00000240: 3354 82bd f086 c6bc e7d1 49be 8aac f0bd
00000250: de06 9abb 3517 eb3d 1891 8abd b459 22be
00000260: dd42 99bd 1efe 07be 9814 e1bd ec75 163e
00000270: 5209 5b3c 1f0f e8bd 7da5 e1be d255 ae3d
00000280: 59fd 77be 2bc4 adbd f111 d73c c6ed d03d
00000290: 590c 54bc 14df 8ebd 1314 ac3c fc5a f4bd
000002a0: 9908 7c3d c677 bd3d 81c6 ebbd 10ab 19be
000002b0: 89ca ea3d 433f 923c fb88 5abe bf15 ff3b
000002c0: 94c2 383d 8410 683d 846c 4c3e 1a24 cfbc
000002d0: edb6 7dbd e206 5dbe 8547 febd aff2 8ebd
000002e0: 6c19 7abe ee34 f6bc 96d8 1ebd 2d88 4bbd
000002f0: a30e 25be 09ed 3fbe dd41 0abe c514 6c3e
00000300: 677e 0d3d ebd2 93bd 5668 563c e800 8fbe
00000310: 5524 3cbe 1f3e ab3a 1542 0dbe a19c 3fbe
00000320: 3e47 51be a4e0 243d 5ce9 7bbe 2bec 74be
00000330: f954 953e 8879 cebc 5d41 73bd 5d2d 70bd
00000340: 20d8 cdbe a601 f4bd 4e12 3e3e 3e67 00be
00000350: 6960 8fbe 5a15 88be f00e fdbd 838c e73d
00000360: 3a42 343c 0daa 9f3d 3b0c 903c e384 6e3d
00000370: 3ec3 aabe 2b2c 723e 7cb7 8fbc 8e0b 96bd
00000380: ffb5 dcbd 0bf5 e9bc 8cbf debe 6470 a73a
00000390: 2b53 12bc b826 913d 6cff 5cbd dbca 96be
000003a0: dfeb d5bc 882f 5bbe fd04 d3bd d738 c1bd
000003b0: a1ee b63d 754f dd3d cab2 053d 6c5d 143e
000003c0: f9ee cc3d afe1 963d 5b5e a03c 4608 adbd
000003d0: b17c d13c 38c7 43bd df61 a33b 2641 013c
000003e0: 4ca6 05bd b309 f53c 6706 d5bd fc87 be3d
000003f0: ca9e 053d e5d9 193e aafe 1ebe 3a2f 7f3c

bias f4 [128]
-0.13613938 0.08675023 -0.138717 -0.18078642 -0.13275231 -0.120096266 -0.097977936 -0.12588403
-0.011520057 -0.109807864 -0.07483802 -0.21086659 -0.096183896 0.2048597 0.015595207 -0.119014286
-0.0007033525 0.14238028 0.041798797 0.09844133 -0.19619477 -0.051960506 -0.22038421 0.047957942
0.10595905 -0.089866154 -0.077933826 0.0029691206 -0.06917612 -0.051866006 -0.21033876 -0.0327586
-0.13475183 -0.002311053 -0.10245197 -0.012281838 -0.0842127 0.0034142197 0.08582869 0.0909882
0.04068417 0.11336476 -0.16279198 -0.101777665 -0.20668937 0.024063645 -0.060096692 0.19220379
-0.008296169 -0.23521326 -0.045095142 0.055656787 -0.11112409 -0.03489578 -0.0062354626 0.07773795
-0.060729235 0.01766305 -0.06956305 0.27742687 -0.023448577 -0.03478279 0.06424564 -0.12764364
-0.27813628 0.068475775 -0.0077411244 -0.14349438 0.039448142 -0.22100197 0.08534545 -0.41007134
-0.21477689 0.13480009 -0.083858445 -0.2637428 0.117514566 0.009157555 -0.09784745 -0.27125806
0.120721065 -0.17331618 -0.19080193 -0.0086086085 -0.2423328 0.04657836 -0.060707536 0.04507648
-0.15956968 -0.07269675 -0.13542746 -0.16144915 0.077611096 -0.104509845 0.049416136 -0.08313976
-0.09835855 0.05775753 0.040071532 -0.2528321 -0.14348316 -0.050119285 -0.21799457 -0.087703384
-0.046894234 -0.030974712 0.13772888 0.012257965 -0.13999219 -0.2070765 0.0039853742 -0.06269807
-0.16763984 -0.0894316 0.10524945 -0.23620908 -0.29230413 0.10961731 -0.062426485 0.18351787
-0.06753325 0.012264943 -0.0012798638 -0.13013761 -0.15014167 0.13196133 -0.13787995 -0.17928524
00000000: 1f68 0bbe 1baa b13d d40b 0ebe 1320 39be
00000010: 39f0 07be 08f5 f5bd a8a8 c8bd bee7 00be
00000020: 9fbe 3cbc f2e2 e0bd ad44 99bd 69ed 57be
00000030: 10fc c4bd bec6 513e 0a83 7f3c c3bd f3bd
00000040: 3061 38ba 23cc 113e 3735 2b3d 9c9b c93d
00000050: 48e7 48be 8ad4 54bd 66ac 61be 8c6f 443d
00000060: 0f01 d93d bf0b b8bd c59b 9fbd 9495 423b
00000070: 36ac 8dbd 7371 54bd 0b63 57be e22d 06bd
00000080: 62fc 09be 0975 17bb 57d2 d1bd c339 49bc
00000090: b577 acbd 1ac1 5f3b f4c6 af3d 0558 ba3d
000000a0: 72a4 263d c92b e83d f1b2 26be cf70 d0bd
000000b0: 61a6 53be 1f21 c53c f327 76bd 12d1 443e
000000c0: a8ec 07bc bfdb 70be afb5 38bd 5ff8 633d
000000d0: 0795 e3bd e1ee 0ebd da52 ccbb 1335 9f3d
000000e0: 38bf 78bd 1ab2 903c 1377 8ebd e50a 8e3e
000000f0: 3b17 c0bc 6678 0ebd 3893 833d 04b5 02be
00000100: e167 8ebe 073d 8c3d 42a9 fdbb 31f0 12be
00000110: 6094 213d 574e 62be 98c9 ae3d dff4 d1be
00000120: 79ee 5bbe 0909 0a3e fabd abbd 4c09 87be
00000130: 7aab f03d 9209 163c 3e64 c8bd 56e2 8abe
00000140: 9b3c f73d cc79 31be 9561 43be 1f0b 0dbc
00000150: 1726 78be f3c8 3e3d 77a8 78bd 1da2 383d
00000160: 3c66 23be 09e2 94bd 7fad 0abe ed52 25be
00000170: 91f2 9e3d 4209 d6bd 9368 4a3d 2e45 aabd
00000180: 3570 c9bd 2993 6c3d 0c22 243d 3673 81be
00000190: 40ed 12be e149 4dbd f839 5fbe d59d b3bd
000001a0: 2b14 40bd aebe fdbc cd08 0d3e a2d5 483c
000001b0: 1d5a 0fbe dd0b 54be be97 823b d967 80bd
000001c0: c7a9 2bbe ea27 b7bd 068d d73d cbe0 71be
000001d0: e3a8 95be 0a7f e03d eab2 7fbd 1cec 3b3e
000001e0: df4e 8abd e6f2 483c 1ac1 a7ba cb42 05be
000001f0: bdbe 19be df20 073e 6730 0dbe 8d96 37be

weight f4 [128, 128]
-0.08725957 -0.11587743 -0.18345119 0.092007354 0.016874885 0.118766755 0.04407276 -0.033054758
-0.040684875 0.022677502 -0.007187556 -0.109789535 0.10420815 -0.08724839 0.24190325 -0.04214388
0.21844438 -0.11882523 0.017332435 -0.035404917 -0.05043997 0.06592871 -0.0773603 0.082148425
-0.049732465 -0.06837377 -0.1187519 0.18293622 -0.01896164 -0.08043496 -0.120171025 0.032986183
0.033452317 -0.019092917 0.121509865 0.05624168 -0.21353291 -0.08476455 -0.25036982 0.052101776
-0.03811712 0.1098069 -0.15467088 -0.09942169 0.021814872 -0.0019647304 0.14938341 0.0026341719
-0.085359186 -0.03299223 -0.034425985 -0.14634056 0.027240606 0.115581885 -0.33183897 -0.45390362
-0.15296376 -0.062687986 0.011645771 0.120657876 -0.23213816 -0.21661344 0.08731137 0.11877173
-0.053506497 0.026356664 -0.26473647 0.040280458 0.13834967 0.055522423 -0.04657592 -0.08133888
0.23544557 0.058133103 -0.026731731 0.029504897 -0.05763878 -0.04788315 0.037312124 0.054243077
-0.08370753 0.13215421 -0.27239224 -0.3563222 0.016850576 0.11369021 0.02384687 -0.41294375
0.07234416 -0.03531877 0.3206628 0.25301018 0.03150946 -0.0529957 -0.07081671 0.12423477
-0.32557505 -0.12753373 0.072585195 -0.054469854 0.2335658 -0.16085343 -0.13053644 -0.16332346
0.19024193 0.27634168 -0.040317807 0.18903768 -0.18379013 0.089992434 -0.09676563 0.12076336
0.0461737 0.13778493 -0.19863825 0.06680554 -0.098995306 -0.13375704 -0.021581233 -0.014883565
0.10586832 -0.037084248 0.045894302 0.12617972 -0.16491549 -0.020938076 0.038592607 0.088255025
-0.050579872 -0.16162755 0.18279296 0.06397667 0.10041431 -0.04754089 -0.018608427 0.13166176
-0.06744938 -0.17725414 0.030841766 0.1696972 0.18738633 -0.12660407 -0.14151065 0.20510384
-0.27114856 -0.068012 -0.018356863 -0.14052746 0.08508776 0.033367436 -0.052387472 -0.0797595
-0.20875327 0.20111175 0.18173948 0.012483302 0.124508075 -0.27983528 0.20172124 -0.07151579
-0.085908785 -0.29624188 -0.13027555 -0.15437564 0.00910527 0.0041761994 -0.20362599 0.09385597
0.10806529 -0.0737982 0.15663315 0.06941058 0.009408709 0.062423524 -0.044221073 -0.17599204
0.01730514 0.118093304 -0.056553926 -0.25463247 0.061522722 0.035764057 0.02694555 -0.075693764
0.15936777 -0.19332828 -0.022183627 -0.21611245 -0.010834038 -0.06357442 0.045267735 0.038177624
0.26178756 -0.051484663 -0.18275237 -0.068420626 -0.1642809 0.08168897 -0.06678082 0.0711528
0.08706128 -0.24582124 0.1605814 0.30220544 -0.12956658 -0.11997067 -0.17877586 0.27520427
-0.08167208 0.12504771 0.2069746 -0.04859882 0.10559807 0.06587214 0.033770505 -0.0060209464
0.0923281 0.21465415 0.10249402 -0.034141906 -0.31483144 -0.02024653 -0.17182632 -0.062242776
-0.04665659 -0.21512824 -0.005465076 -0.0063470276 0.037595723 0.12082863 0.13887745 -0.0510408
0.20871688 -0.079558425 -0.15103172 -0.102414645 0.042263977 0.09275414 -0.06869 -0.27568328
0.15808009 -0.061776396 -0.04050628 0.15349808 0.2297497 -0.035992987 0.14660865 -0.16107203
-0.029939793 0.07803391 -0.09281779 -0.14483505 0.12046563 0.01908147 0.045924902 0.014736311
00000000: 25b5 b2bd 2551 edbd a1da 3bbe 5a6e bc3d
00000010: 333d 8a3c fc3b f33d a385 343d 6d64 07bd
00000020: 2fa5 26bd 2bc6 b93c 9785 ebbb 56d9 e0bd
00000030: 156b d53d 49af b2bd 7cb5 773e 109f 2cbd
00000040: e2af 5f3e a45a f3bd c0fc 8d3c bf04 11bd
00000050: 249a 4ebd a205 873d 146f 9ebd 6f3d a83d
00000060: 45b4 4bbd 8c07 8cbd 3234 f3bd a253 3b3e
00000070: 7155 9bbc 16bb a4bd 3a1c f6bd 851c 073d
00000080: 4c05 093d c068 9cbc 2ada f83d ad5d 663d
00000090: 5fa8 5abe 0999 adbd 7930 80be ac68 553d
000000a0: b220 1cbd 71e2 e03d 0b62 1ebe 999d cbbd
000000b0: 1ab5 b23c b5c2 00bb f7f7 183e 12a2 2c3b
000000c0: ccd0 aebd dc22 07bd 4302 0dbd 4dda 15be
000000d0: b127 df3c 32b6 ec3d cce6 a9be 0e66 e8be
000000e0: 88a2 1cbe 8f62 80bd e7cd 3e3c 7a1b f73d
000000f0: a0b5 6dbe eacf 5dbe 4ed0 b23d 983e f33d
00000100: a129 5bbd eee9 d73c 8a8b 87be 1ffd 243d
00000110: 89ab 0d3e 7b6b 633d 64c6 3ebd 0095 a6bd
00000120: a518 713e fa1c 6e3d 81fc dabc 41b4 f13c
00000130: a416 6cbd 1f21 44bd 99d4 183d fd2d 5e3d
00000140: da6e abbd 6f53 073e ff76 8bbe dd6f b6be
00000150: 380a 8a3c 6ad6 e83d 835a c33c 5d6d d3be
00000160: 2d29 943d 6aaa 10bd ea2d a43e 8d8a 813e
00000170: 1010 013d 0512 59bd 5a08 91bd cd6e fe3d
00000180: c6b1 a6be 3498 02be 8ca7 943d c81b 5fbd
00000190: e02b 6f3e c3b6 24be 58ab 05be 443e 27be
000001a0: c8ce 423e a87c 8d3e 4924 25bd 1893 413e
000001b0: 7b33 3cbe f44d b83d 0f2d c6bd c852 f73d
000001c0: a220 3d3d 7e17 0d3e d367 4bbe 58d1 883d
000001d0: 0dbe cabd 9bf7 08be 20cb b0bc 32da 73bc
000001e0: 7dd1 d83d a7e5 17bd aafb 3b3d 4235 013e
000001f0: 9bdf 28be 5486 abbc 4813 1e3d 0dbf b43d
00000200: d72c 4fbd b181 25be 142e 3b3e 3306 833d
00000210: 05a6 cd3d 3cba 42bd b370 98bc 57d2 063e
00000220: e722 8abd 1c82 35be dfa7 fc3c 1ac5 2d3e
00000230: 34e2 3f3e 7fa4 01be 2be8 10be be06 523e
00000240: fcd3 8abe e049 8bbd 2261 96bc 6ee6 0fbe
00000250: 7e42 ae3d 4bac 083d 3f94 56bd f358 a3bd
00000260: 6bc3 55be 3df0 4d3e ea19 3a3e c386 4c3c
00000270: 17fe fe3d 9246 8fbe 0390 4e3e df76 92bd
00000280: f2f0 afbd 04ad 97be f466 05be a614 1ebe
00000290: 452e 153c 80d8 883b 5583 50be 8f37 c03d
000002a0: 5651 dd3d 8323 97bd 7164 203e 2227 8e3d
000002b0: fc26 1a3c cfaf 7f3d 2821 35bd 4237 34be
000002c0: 82c3 8d3c e7da f13d 17a5 67bd 305f 82be
000002d0: 40ff 7b3d 557d 123d eabc dc3c 5505 9bbd
000002e0: 4e31 233e d9f7 45be 70ba b5bc 954c 5dbe
000002f0: 4081 31bc 4e33 82bd a96a 393d 2460 1c3d
00000300: 0509 863e 95e1 52bd 7023 3bbe 1d20 8cbd
00000310: 4139 28be 8c4c a73d 62c4 88bd 8fb8 913d
00000320: 2f4d b23d 90b8 7bbe 736f 243e acba 9a3e
00000330: 1aad 04be 2fb3 f5bd 0511 37be 93e7 8c3e
00000340: b143 a7bd 820c 003e 26f1 533e 8e0f 47bd
00000350: cd43 d83d f9e7 863d f152 0a3d 5c4b c5bb
00000360: 8416 bd3d 4cce 5b3e 62e8 d13d 62d8 0bbd
00000370: 9631 a1be 0ddc a5bc 3df3 2fbe 48f2 7ebd
00000380: fb1a 3fbd 944a 5cbe 6114 b3bb bafa cfbb
00000390: f9fd 193d 0075 f73d e435 0e3e 2810 51bd
000003a0: e1b9 553e 87ef a2bd 0fa8 1abe c5be d1bd
000003b0: fe1c 2d3d e2f5 bd3d 58ad 8cbd 5c26 8dbe
000003c0: bfdf 213e 3f09 7dbd eae9 25bd 9a2e 1d3e
000003d0: 8143 6b3e 626d 13bd 9420 163e 11f0 24be
000003e0: 4c44 f5bc 3ed0 9f3d 4117 bebd a44f 14be
000003f0: afb6 f63d be50 9c3c c01b 3c3d 9170 713c

bias f4 [128]
0.0018480057 -0.043633234 0.05427487 -0.13798498 -0.004103736 -0.12730102 -0.10176081 0.0268195
-0.29729724 0.07778534 -0.013230864 -0.016410837 -0.07109495 0.14071625 0.054248765 -0.048456106
0.028386943 -0.07970549 -0.031812515 -0.10287047 -0.14858775 0.062138844 -0.18453388 0.0010538208
0.009466617 -0.08023253 -0.061554156 -0.016769884 0.0614212 -0.042968977 -0.27315226 -0.040052198
-0.07267548 -0.19810389 -0.15183417 -0.015230846 0.1085867 -0.1210374 -0.040602706 -0.17563818
-0.08302562 -0.060058955 -0.24876778 -0.12639497 -0.15044367 0.15110224 -0.22800276 0.040108737
-0.13214283 -0.14058597 -0.10922568 0.0020825353 0.026893009 -0.19919239 0.04093949 0.10510087
-0.1779955 -0.121154346 -0.1267854 0.11026966 -0.00773177 0.032404337 0.008833624 -0.08791627
-0.01812857 -0.17088705 -0.14323637 -0.11517454 -0.2036625 -0.015161973 -0.11650315 -0.0006363136
-0.06784138 0.039408255 0.038548633 -0.15011054 -0.006033234 0.013969673 -0.08341611 0.08231527
-0.008139787 0.14618413 0.07612386 -0.19059604 0.0056871013 0.08347776 -0.033012062 -0.10265553
-0.073154405 -0.22907737 -0.08891485 0.12709312 -0.021701576 -0.190243 0.12526871 -0.10712722
-0.12865505 -0.030343812 -0.19294855 -0.121733695 0.04058769 -0.08706951 -0.0397167 0.0013690033
-0.15084213 -0.25298136 -0.13354652 -0.15030873 -0.08388078 -0.022225698 -0.010308342 -0.06489379
0.14326474 -0.11099543 -0.12797225 -0.12066737 0.05185987 -0.13162191 -0.23139933 0.03914142
-0.06474291 -0.008936193 0.058508385 -0.047905233 -0.017790608 -0.06879156 -0.2635472 -0.16872326
00000000: c838 f23a c3b8 32bd 534f 5e3d ef4b 0dbe
00000010: a278 86bb 335b 02be f967 d0bd 91b4 db3c
00000020: 5837 98be ec4d 9f3d 44c6 58bc 0570 86bc
00000030: 3b9a 91bd ec17 103e f433 5e3d e979 46bd
00000040: bc8b e83c a23c a3bd d74d 02bd c1ad d2bd
00000050: 6327 18be 4d85 7e3d 73f6 3cbe 5c20 8a3a
00000060: df19 1b3c f450 a4bd 3620 7cbd ff60 89bc
00000070: cc94 7b3d 3d00 30bd 9dda 8bbe c60d 24bd
00000080: e2d6 94bd bfdb 4abe 6b7a 1bbe cc8a 79bc
00000090: b462 de3d 75e2 f7bd 064f 26bd 7fda 33be
000000a0: 5609 aabd 6100 76bd fbbc 7ebe af6d 01be
000000b0: e80d 1abe 8cba 1a3e 8e79 69be 0f49 243d
000000c0: 7350 07be c5f5 0fbe b7b1 dfbd 257b 083b
000000d0: ba4e dc3c 17f9 4bbe 2bb0 273d 203f d73d
000000e0: 7444 36be c51f f8bd 08d4 01be 0fd5 e13d
000000f0: ca5a fdbb 69ba 043d e8ba 103c 720d b4bd
00000100: 5e82 94bc 04fd 2ebe 8eac 12be a1e0 ebbd
00000110: e78c 50be ed69 78bc 3499 eebd 48ce 26ba
00000120: 6cf0 8abd 8d6a 213d 2ce5 1d3d 94b6 19be
00000130: 6fb2 c5bb 0ee1 643c 11d6 aabd e994 a83d
00000140: be5c 05bc 4bb1 153e d4e6 9b3d 9c2b 43be
00000150: dd5a ba3b 63f6 aa3d a837 07bd 103d d2bd
00000160: fad1 95bd 4293 6abe fd18 b6bd b324 023e
00000170: 81c7 b1bc 10cf 42be 7146 003e 8465 dbbd
00000180: 26be 03be 9693 f8bc 4e94 45be 844f f9bd
00000190: 473f 263d 8051 b2bd faad 22bd 2170 b33a
000001a0: 5c76 1abe c686 81be 6bc0 08be 88ea 19be
000001b0: b0c9 abbd ab12 b6bc 52e4 28bc 09e7 84bd
000001c0: feb3 123e 9251 e3bd 280b 03be 7420 f7bd
000001d0: 046b 543d e5c7 06be f2f3 6cbe c152 203d
000001e0: ee97 84bd 1c69 12bc 7da6 6f3d 4738 44bd
000001f0: 9cbd 91bc 97e2 8cbd a9ef 86be cac5 2cbe

weight f4 [128, 128]
-0.153624 0.10046552 -0.05194502 -0.13347743 0.056451604 0.25615683 -0.097981915 -0.023554694
-0.15737246 0.22395177 0.14649731 -0.13998199 -0.15968703 -0.089559324 -0.015485998 -0.09734858
-0.1674984 -0.25287357 -0.4134988 -0.06486535 0.045061678 0.30990368 -0.19333807 -0.23791799
-0.31061694 -0.15289067 -0.3915331 -0.03152882 -0.32559505 -0.03296659 -0.02501385 -0.06088934
-0.08952281 -0.2634557 -0.0043399963 -0.010434992 0.081380576 -0.17719464 0.24695319 0.03502431
-0.05859118 0.093840435 -0.15142018 0.029679103 -0.12778848 0.027013937 0.18276876 -0.24719028
0.07111035 0.013195386 -0.18237706 0.09626897 0.07246295 0.22097245 -0.34398055 -0.23301767
-0.1995103 0.0030476602 -0.28427455 -0.12208913 -0.27153012 -0.052605767 0.25826374 -0.2318849
-0.23845288 0.079793215 -0.21489678 -0.028967744 -0.15402104 -0.3124211 -0.23752326 0.15420096
-0.1140998 0.08392225 -0.21463796 0.08057607 -0.01268365 -0.26746562 0.13803366 0.29565868
0.24810368 0.189485 -0.32635516 -0.07323582 -0.14935167 -0.24990073 -0.006567582 0.045258448
-0.1584717 0.12001996 -0.08905293 0.2902579 -0.20845836 -0.3742225 -0.44420117 0.13101093
-0.26067635 -0.06975999 -0.00041269456 -0.2606093 -0.15858725 0.02444157 0.07465636 -0.14716792
0.11864035 -0.24318422 -0.07990947 -0.1459353 -0.02696617 -0.18859312 -0.12325692 -0.18814713
0.18989499 -0.14360486 0.24844751 -0.27057165 0.21541843 -0.21038575 -0.09385504 0.025604574
0.11940558 -0.24754344 0.16753565 0.123551436 0.22110681 0.08876375 -0.37696767 0.030299619
0.011196935 -0.15118743 -0.23819526 -0.24239594 -0.13031752 -0.12617484 -0.19962932 0.034489993
-0.12421761 -0.45401686 -0.04538214 -0.060472205 -0.13350168 -0.02320158 0.05390844 -0.099940635
0.35090294 0.007594778 0.17886384 -0.11490137 0.056267295 -0.31416696 -0.18906346 -0.1719379
0.05881387 -0.013615857 0.09279057 0.105824836 0.01792405 0.10481169 -0.072340086 -0.014978759
-0.22579136 -0.033966266 -0.33652616 0.080566466 -0.12889634 -0.18573028 -0.0037669793 -0.021933282
0.036838293 -0.043187417 -0.16364726 0.13473263 -0.10094273 -0.054755226 -0.3047113 0.010037104
-0.19587027 -0.046872143 -0.11454501 0.0025366277 -0.13378602 -0.11718876 0.07550401 0.07321014
-0.16058244 -0.14812766 0.10941589 -0.15458098 -0.0042979834 -0.12541433 -0.15488188 -0.0033792781
0.02803308 -0.2985434 -0.08575679 -0.040023148 -0.017502328 -0.09170819 -0.17746921 -0.17001256
-0.07323217 -0.20923379 -0.21720792 -0.2150626 0.15962051 -0.15462752 -0.097412266 -0.36430454
-0.18466264 -0.30950794 -0.0334994 -0.005170853 0.031518605 -0.06931025 0.2647606 -0.21457538
-0.095525235 -0.16007338 0.059745207 -0.43886277 0.034579955 0.03634857 0.18633616 -0.17407319
0.14431383 -0.31240478 -0.31472898 0.11068597 0.07169446 -0.071568236 -0.20699853 -0.032579467
-0.14767912 0.107871585 0.1048232 -0.039680135 -0.31692854 -0.1040833 -0.14335606 0.06571475
-0.23869243 -0.17508234 -0.14823368 -0.086727686 -0.1918161 -0.18613942 -0.20137602 -0.13348772
-0.2031795 0.12542252 -0.18273258 -0.32695645 -0.1507147 -0.34665963 0.04593155 -0.1616142
00000000: 9c4f 1dbe dec0 cd3d 4dc4 54bd 4fae 08be
00000010: cc39 673d fd26 833e beaa c8bd c6f5 c0bc
00000020: 3f26 21be 9d53 653e 6403 163e 7057 0fbe
00000030: ff84 23be e16a b7bd fcb8 7dbc b15e c7bd
00000040: b384 2bbe a578 81be 1db6 d3be 20d8 84bd
00000050: 9892 383d b2ab 9e3e 6afa 45be c6a0 73be
00000060: 2f09 9fbe 5f8f 1cbe 0777 c8be 5d24 01bd
00000070: 65b4 a6be fa07 07bd d8e9 ccbc 1a67 79bd
00000080: bc57 b7bd aae3 86be 8736 8ebb 87f7 2abc
00000090: dcaa a63d 8372 35be 4ce1 7c3e a775 0f3d
000000a0: 4efd 6fbd 6a2f c03d e40d 1bbe 9721 f33c
000000b0: fcda 02be 554c dd3c bc27 3b3e 731f 7dbe
000000c0: 4ea2 913d 7631 583c 0dc1 3abe aa28 c53d
000000d0: 7567 943d 9a46 623e 381e b0be 2f9c 6ebe
000000e0: 6e4c 4cbe 41bb 473b 6f8c 91be de09 fabd
000000f0: ff05 8bbe 2579 57bd 253b 843e 3c73 6dbe
00000100: fe2c 74be a06a a33d e70d 5cbe c34d edbc
00000110: b1b7 1dbe a9f5 9fbe 4c39 73be dbe6 1d3e
00000120: 28ad e9bd 6edf ab3d 0eca 5bbe 1105 a53d
00000130: 15cf 4fbc 41f1 88be b258 0d3e 9360 973e
00000140: e40e 7e3e 5b08 423e 0618 a7be a9fc 95bd
00000150: a5ef 18be fae5 7fbe df34 d7bb ec60 393d
00000160: 6846 22be 06cd f53d 6261 b6bd af9c 943e
00000170: 1c76 55be 179a bfbe 566e e3be bb27 063e
00000180: 5f77 85be 53de 8ebd ed5e d8b9 956e 85be
00000190: b264 22be b039 c83c 6fe5 983d 30b3 16be
000001a0: b6f9 f23d 4905 79be 94a7 a3bd 1070 15be
000001b0: 28e8 dcbc 8e1e 41be 206e fcbd a4a9 40be
000001c0: d573 423e 270d 13be 0669 7e3e 5e88 8abe
000001d0: a696 5c3e 5d6f 57be 1237 c0bd afc0 d13c
000001e0: ea8a f43d 077c 7dbe 778e 2b3e 8908 fd3d
000001f0: d369 623e c5c9 b53d e801 c1be e836 f83c
00000200: 5973 373c e1d0 1abe 75e9 73be a436 78be
00000210: f571 05be fa33 01be a16b 4cbe 6145 0d3d
00000220: cd65 febd e674 e8be 9fe2 39bd b4b1 77bd
00000230: aab4 08be 3d11 bebc 19cf 5c3d adad ccbd
00000240: 8da9 b33e 9edd f83b 1528 373e 6951 ebbd
00000250: 8978 663d 7eda a0be da99 41be 7d10 30be
00000260: d0e6 703d 0b15 5fbc fb08 be3d b1ba d83d
00000270: 75d5 923c 83a7 d63d 0a27 94bd 7869 75bc
00000280: da35 67be 3620 0bbd 284d acbe 0800 a53d
00000290: 67fd 03be 1430 3ebe 6ddf 76bb 6dad b3bc
000002a0: c0e3 163d 4ae5 30bd 2693 27be 5af7 093e
000002b0: 10bb cebd 0447 60bd 1f03 9cbe aa72 243c
000002c0: 3792 48be 01fd 3fbd 9396 eabd 8d3d 263b
000002d0: 34ff 08be a900 f0bd d9a1 9a3d 33ef 953d
000002e0: b96f 24be c7ae 17be 7015 e03d 7a4a 1ebe
000002f0: 19d6 8cbb 9d6c 00be 5b99 1ebe e176 5dbb
00000300: a1a5 e53c aeda 98be 42a1 afbd 50ef 23bd
00000310: 0b61 8fbc 81d1 bbbd 7dba 35be c617 2ebe
00000320: bffa 95bd 6241 56be c16b 5ebe 5f39 5cbe
00000330: 8f73 233e ad56 1ebe 1580 c7bd 2086 babe
00000340: 3418 3dbe d377 9ebe ab36 09bd 4270 a9bb
00000350: a719 013d 88f2 8dbd b48e 873e a6b9 5bbe
00000360: bca2 c3bd 47ea 23be 64b7 743d 9fb2 e0be
00000370: b6a3 0d3d 3de2 143d e8ce 3e3e 3e40 32be
00000380: 01c7 133e 85f3 9fbe 2824 a1be 53af e23d
00000390: 8cd4 923d 5e92 92bd 6cf7 53be 0c72 05bd
000003a0: 3239 17be c7eb dc3d 8cad d63d a387 22bd
000003b0: 7544 a2be a029 d5bd eecb 12be 7495 863d
000003c0: ca6b 74be c948 33be 92ca 17be 499e b1bd
000003d0: 716b 44be 559b 3ebe 8435 4ebe 01b1 08be
000003e0: 490e 50be c36e 003e 401e 3bbe d666 a7be
000003f0: f454 1abe 5f7d b1be b922 3c3d 317e 25be

bias f4 [128]
0.07798113 0.20922817 2.0222546e-05 0.020158054 0.19061995 0.13221401 0.14512901 0.119664736
0.019658105 0.10613265 0.08596858 0.097207166 0.23957902 -0.06601666 0.15697454 -0.014708444
0.07894114 0.032074403 -0.009876523 -0.12521999 0.03720206 0.19668649 -0.010930185 0.051989373
-0.023060055 0.005965074 -0.016097838 -0.067056276 0.013145597 0.19486031 0.026564531 0.1097695
0.15057614 -0.0106756035 0.012449004 0.03432034 0.08024291 0.024191866 0.12135984 -0.08598006
0.015016757 -0.011001217 -0.11370978 -0.03292545 0.21147668 0.10210364 0.18735215 -0.18454503
-0.010173663 0.032365676 0.085094616 0.05884565 0.09264075 -0.058874533 -0.076423936 -0.14863284
-0.009269792 -0.10980754 0.11362225 -0.01203014 0.08489903 0.1716714 -0.033494134 0.04985757
-0.029617023 0.13027218 0.09548443 0.047046933 0.09207538 -0.097661294 0.01208785 0.20758094
0.17687131 -0.070306756 0.016933287 0.044207472 0.10448637 -0.0072295056 0.018651841 0.04737108
0.07153116 0.28150117 0.118839696 -0.05965134 0.15912363 -0.016254544 -0.09948767 -0.023486227
0.15080886 0.1433073 0.09951759 -0.064080186 0.20320372 -0.03527866 0.056529824 0.004294802
-0.2663968 -0.05076031 -0.09648693 -0.06219955 0.18493737 0.063218884 0.024220861 -0.0013481419
-0.028212307 0.089907825 -0.038733747 0.024205048 0.008750371 0.05573438 0.15338096 0.08492486
0.048446357 -0.198048 0.06777941 -0.042048365 0.014711814 -0.016571185 0.18138087 -0.006257538
-0.08380374 0.26100373 -0.056277853 -0.01362384 -0.029389272 0.26102546 0.11123789 0.23238118
00000000: 92b4 9f3d e93f 563e 96a3 a937 8122 a53c
00000010: e031 433e 1c63 073e b39c 143e c912 f53d
00000020: 090a a13c 135c d93d 4b10 b03d 8d14 c73d
00000030: 3454 753e be33 87bd efbd 203e affb 70bc
00000040: e4ab a13d 7360 033d 24d1 21bc ab39 00be
00000050: 3061 183d 2f68 493e 8514 33bc cff2 543d
00000060: 71e8 bcbc ab76 c33b 9ddf 83bc cd54 89bd
00000070: a160 573c 7689 473e dc9d d93c d5ce e03d
00000080: a230 1a3e bae8 2ebc e8f6 4b3c 7c93 0c3d
00000090: 6556 a43d 052e c63c 828b f83d 5016 b0bd
000000a0: d808 763c 733e 34bc ace0 e8bd d6dc 06bd
000000b0: 588d 583e b71b d13d 3ed9 3f3e 5ff9 3cbe
000000c0: 6faf 26bc df91 043d 1646 ae3d 2308 713d
000000d0: 6fba bd3d 6c26 71bd 2784 9cbd 3533 18be
000000e0: 53e0 17bc c7e2 e0bd c8b2 e83d 101a 45bc
000000f0: 8bdf ad3d a1ca 2f3e 2531 09bd 7437 4c3d
00000100: 669f f2bc 1266 053e 578d c33d 49b4 403d
00000110: 0492 bc3d a502 c8bd 1e0c 463c 1990 543e
00000120: c11d 353e fdfc 8fbd adb7 8a3c e512 353d
00000130: f3fc d53d 7de5 ecbb bfcb 983c 2d08 423d
00000140: ee7e 923d ec20 903e 3a62 f33d f754 74bd
00000150: 4ef1 223e 4028 85bc 31c0 cbbd 3066 c0bc
00000160: a36d 1a3e 26bf 123e e1cf cb3d 793c 83bd
00000170: a314 503e 5b80 10bd d18b 673d 69bb 8c3b
00000180: 2965 88be 0bea 4fbd f19a c5bd f5c4 7ebd
00000190: 3960 3d3e e778 813d d46a c63c 23b4 b0ba
000001a0: 7f1d e7bc 9821 b83d 47a7 1ebd aa49 c63c
000001b0: b75d 0f3c bc49 643d e60f 1d3e 16ed ad3d
000001c0: b06f 463d 18cd 4abe eecf 8a3d e83a 2cbd
000001d0: d209 713c 4bc0 87bc e8bb 393e 090c cdbb
000001e0: 4ca1 abbd 48a2 853e 9b83 66bd 8736 5fbc
000001f0: c5c1 f0bc 21a5 853e b1d0 e33d 55f5 6d3e

weight f4 [8, 128]
-0.23716204 0.12157052 -0.24884048 0.00788358 -0.1512323 0.17179474 0.0015719592 -0.08051821
-0.21060075 0.16986771 -0.15953322 -0.21871613 -0.008017058 0.0962146 0.12892078 -0.040910948
0.14806114 -0.028773021 -0.182341 0.05604668 0.08359267 0.014574061 0.23861389 -0.07891267
0.0857385 0.032620735 -0.12726398 -0.007403353 -0.28312594 0.15573715 -0.077380806 0.045069005
0.0005795298 0.1653789 -0.109301835 -0.3257152 0.26176286 0.0053135655 0.16193789 0.14991368
0.17695612 0.17080233 0.07912474 -0.13552575 0.26861656 -0.08939446 0.26842824 -0.009897241
-0.083722055 0.2962035 0.08090194 -0.1563208 0.24164973 -0.09491556 -0.08330714 -0.11118736
-0.0958908 -0.095783085 0.29695815 0.23761708 0.33981097 0.17365813 -0.05426659 -0.030975841
0.037893407 -0.028327953 -0.23348236 0.12951487 -0.25651783 -0.1447686 0.046221275 0.15275264
0.038628794 -0.1257994 0.07228305 0.07515163 0.009427407 -0.092669904 -0.21414794 -0.18038122
0.008294553 -0.18294235 0.18499684 0.27592653 -0.003935013 0.004468316 -0.16060796 -0.1374742
0.0576299 -0.2038972 -0.18633136 0.260923 0.12916696 0.05108469 0.027802015 0.0377091
-0.14478874 0.11292825 -0.044240795 -0.009435043 -0.20640223 0.032875247 -0.08912864 -0.21142475
-0.25287268 -0.10506704 -0.04119795 -0.012545592 -0.1868354 -0.022785323 0.18056034 0.14823866
-0.06777316 -0.1273215 -0.03156145 -0.042043637 0.07586028 -0.021356212 -0.005562968 -0.16862002
0.07961427 -0.07829172 -0.18654323 -0.20222425 -0.034150627 0.108656496 -0.24282354 -0.14589576
0.024605043 -0.1640854 -0.08887093 -0.051838033 0.0042204815 -0.08871464 -0.15677226 -0.13996422
-0.01105194 0.2053423 0.025478307 -0.25439528 -0.194147 0.06410874 -0.17908555 -0.28459078
0.13347334 -0.015489343 -0.15045585 0.20313828 0.015989386 -0.3539759 -0.056335542 0.03894611
-0.065294944 0.048549898 -0.07457315 0.000770664 -0.0665217 -0.16775659 0.05752436 0.02996749
-0.14538103 -0.13145037 -0.10070981 0.08026128 -0.11484054 -0.10433712 -0.23233761 -0.055907007
-0.014342272 -0.04060678 0.039474797 -0.04355264 -0.15653211 -0.043867793 -0.29170758 0.19039728
-0.21403487 0.0056013884 -0.17592536 0.084064476 0.015332224 -0.06877892 -0.17733726 -0.15445144
-0.19746312 -0.06094584 0.16442588 -0.08752927 -0.03232349 0.051944114 -0.1120812 -0.14918968
-0.11350385 -0.06876046 -0.27139494 0.01394346 0.005568092 0.10144269 -0.020089628 -0.20923303
-0.021767672 -0.1549742 0.016804976 -0.20045011 -0.18187158 -0.2650752 -0.112138934 -0.08862818
0.14518999 -0.30080196 -0.18039007 -0.03194495 -0.25966302 0.12918063 0.1527376 -0.095668584
-0.21472278 -0.11967429 -0.108793706 -0.26229748 -0.116651505 -0.042739723 -0.24066012 0.1956778
0.14274804 0.011268545 0.06800584 0.038059242 -0.22380216 -0.15667696 -0.14528835 -0.10044082
0.07973254 -0.24009262 -0.15874682 0.064651884 0.28112647 -0.17062448 -0.20239471 0.22283818
-0.12479822 -0.1280291 0.061255742 0.11660627 -0.16984548 -0.16969623 -0.114692636 -0.2472504
0.033732325 -0.27406406 -0.006940328 0.013413133 0.015973749 -0.3266046 0.087643966 -0.24095626
00000000: 9bda 72be f7f9 f83d 0ad0 7ebe 222a 013c
00000010: a4dc 1abe f6ea 2f3e 330a ce3a bbe6 a4bd
00000020: b9a7 57be cdf1 2d3e ad5c 23be 1ff7 5fbe
00000030: fa59 03bc 290c c53d cf03 043e 3d92 27bd
00000040: 579d 173e 66b5 ebbc 99b7 3abe 3491 653d
00000050: a232 ab3d 0bc8 6e3c 3357 743e f79c a1bd
00000060: ab97 af3d 529d 053d 7d51 02be d497 f2bb
00000070: e2f5 90be 8f79 1f3e d479 9ebd 479a 383d
00000080: 96eb 173a 1659 293e a4d9 dfbd 25c4 a6be
00000090: c805 863e 6b1d ae3b 0cd3 253e f982 193e
000000a0: fc33 353e cee6 2e3e 270c a23d 43c7 0abe
000000b0: 1c88 893e 7114 b7bd 6d6f 893e 0a28 22bc
000000c0: 7876 abbd fca7 973e ebaf a53d 8f12 20be
000000d0: 0773 773e 1763 c2bd ef9c aabd 33b6 e3bd
000000e0: 6562 c4bd ec29 c4bd e60a 983e e451 733e
000000f0: b4fb ad3e 70d3 313e a546 5ebd 0cc1 fdbc
00000100: 1e36 1b3d 0610 e8bc 0016 6fbe 8c9f 043e
00000110: 4e56 83be 383e 14be 8552 3d3d 306b 1c3e
00000120: 3a39 1e3d 8fd1 00be 2309 943d 19e9 993d
00000130: 6975 1a3c b8c9 bdbd 9949 5bbe dbb5 38be
00000140: e0e5 073c 3d55 3bbe d06f 3d3e 3e46 8d3e
00000150: 48f1 80bb f46a 923b 6a76 24be 09c6 0cbe
00000160: 540d 6c3d 6dca 50be a6cd 3ebe b397 853e
00000170: 5844 043e 2e3e 513d 0dc1 e33c db74 1a3d
00000180: 8043 14be ed46 e73d d635 35bd 7095 1abc
00000190: 1b5b 53be 32a8 063d 1489 b6bd bb7f 58be
000001a0: 8778 81be 632d d7bd 2ebf 28bd 078c 4dbc
000001b0: c751 3fbe 49a8 babc cfe4 383e e0cb 173e
000001c0: a8cc 8abd 9160 02be 9446 01bd f335 2cbd
000001d0: a25c 9b3d 39f3 aebc 8f49 b6bb baaa 2cbe
000001e0: ce0c a33d 6957 a0bd 3005 3fbe e013 4fbe
000001f0: 87e1 0bbd 4c87 de3d bca6 78be b365 15be
00000200: 8490 c93c 0106 28be f601 b6bd 1e54 54bd
00000210: f74b 8a3b 05b0 b5bd e888 20be c852 0fbe
00000220: 3213 35bc 4045 523e e2b7 d03c 1940 82be
00000230: 79ce 46be 714b 833d 3462 37be e2b5 91be
00000240: 3cad 083e 03c7 7dbc 1911 1abe 7b03 503e
00000250: 2cfc 823c 543c b5be 19c0 66bd f585 1f3d
00000260: 5bb9 85bd 42dc 463d cfb9 98bd 6306 4a3a
00000270: 873c 88bd 62c8 2bbe aa9e 6b3d 627e f53c
00000280: c4de 14be ed9a 06be f240 cebd 0760 a43d
00000290: 8431 ebbd b3ae d5bd e9e9 6dbe bffe 64bd
000002a0: d9fb 6abc 4c53 26bd 53b0 213d 4164 32bd
000002b0: f449 20be b7ae 33bd b25a 95be 81f7 423e
000002c0: f52b 5bbe da8b b73b c725 34be ff29 ac3d
000002d0: 0234 7b3c f6db 8cbd e697 35be 8528 1ebe
000002e0: c633 4abe 58a2 79bd 425f 283e 8c42 b3bd
000002f0: a365 04bd 5ac3 543d d48a e5bd 2ec5 18be
00000300: b574 e8bd 49d2 8cbd 47f4 8abe 1c73 643c
00000310: 8b74 b63b 2fc1 cf3d 0193 a4bc 2f41 56be
00000320: 1e52 b2bc 8fb1 1ebe 97aa 893c cb42 4dbe
00000330: 8b3c 3abe f0b7 87be 19a9 e5bd b182 b5bd
00000340: afac 143e b702 9abe 2db8 38be b5d8 02bd
00000350: 8df2 84be ed47 043e 3f67 1c3e e4ed c3bd
00000360: 4ae0 5bbe cb17 f5bd 3ccf debd db4b 86be
00000370: fce6 eebd d90f 2fbd 9b6f 76be c35f 483e
00000380: 8b2c 123e b49f 383c a546 8b3d 02e4 1b3d
00000390: 652c 65be ed6f 20be 78c6 14be ebb3 cdbd
000003a0: d04a a33d d7da 75be 878e 22be 3568 843d
000003b0: cfef 8f3e 2fb8 2ebe 8f40 4fbe b12f 643e
000003c0: 3696 ffbd 0f1a 03be 4de7 7a3d 45cf ee3d
000003d0: f9eb 2dbe d9c4 2dbe f9e3 eabd 352f 7dbe
000003e0: e82a 0a3d 2052 8cbe b16b e3bb c2c2 5b3c
000003f0: 61db 823c b838 a7be ae7e b33d 3dbd 76be

bias f4 [8]
0.020513227 -0.097542286 0.03243026 0.11729872 0.11723348 -0.14683406 -0.0842973 0.06695111
00000000: 5b0b a83c 40c4 c7bd 98d5 043d 503a f03d
00000010: 1b18 f03d ab5b 16be 10a4 acbd aa1d 893d
